assignment2/inception_best.pt (torch, 686910 bytes, 467 tensors)

block1.0.br1_conv.weight f4 [4, 16, 1, 1]
-0.03697681 0.0044163587 -0.1911432 -0.027451567 -0.47902405 -0.4439142 -0.035009388 -0.35487902
0.096923895 -2.201733 -0.0018778109 -0.21452671 0.19637726 -0.45341316 0.18534204 -0.06335305
-0.01471343 0.0717163 0.029262094 0.0007189954 0.0069039348 0.0066604153 0.032634564 -0.113697
0.04047519 -0.03165211 -0.017885828 -0.039599486 0.04123433 -0.004561604 -0.017315522 0.044999633
-0.12093816 0.032565434 0.2030117 0.067247614 -0.11135011 -0.012934045 0.10720694 0.16457935
-0.04560176 0.011052031 0.21568035 0.09351821 0.05182709 0.33266592 -0.24861936 0.025805749
-0.046880085 0.037480425 -0.08677846 0.012426963 0.22195455 -0.48892295 0.06698306 0.38565484
-0.25639305 0.1278022 0.3701189 -0.23127733 0.6469452 -2.3488607 -0.19532683 0.020974245
00000000: ff74 17bd 1ab7 903b 0bbb 43be 1ce2 e0bc
00000010: a442 f5be b948 e3be 0166 0fbd b4b2 b5be
00000020: 0980 c63d 32e9 0cc0 e120 f6ba e4ac 5bbe
00000030: 1f17 493e c525 e8be 4eca 3d3e 3ebf 81bd
00000040: 9910 71bc ffdf 923d 0fb7 ef3c f77a 3c3a
00000050: 673a e23b 9d3f da3b d2ab 053d f9d9 e8bd
00000060: 50c9 253d a5a5 01bd 4d85 92bc 1233 22bd
00000070: 54e5 283d 8279 95bb 48d9 8dbc 8951 383d
00000080: 6dae f7bd 5563 053d 4de2 4f3e 1eb9 893d
00000090: 870b e4bd 51e9 53bc 508f db3d 7d87 283e
000000a0: e9c8 3abd 9413 353c 4fdb 5c3e 7a86 bf3d
000000b0: a548 543d 3053 aa3e 1396 7ebe 9466 d33c
000000c0: 5505 40bd 1385 193d e8b8 b1bd 769a 4b3c
000000d0: 0e48 633e 1c54 fabe 6a2e 893d 8d74 c53e
000000e0: f345 83be 94de 023e 3980 bd3e f7d3 6cbe
000000f0: 339e 253f bc53 16c0 c203 48be 2ed2 ab3c

block1.0.br1_bn.weight f4 [4]
1.1373452 0.0033886007 -0.0067543583 1.1596395
00000000: 8794 913f 4913 5e3b aa53 ddbb 116f 943f

block1.0.br1_bn.bias f4 [4]
1.3020567 -0.09271998 -0.048553854 1.942403
00000000: cba9 a63f f9e3 bdbd 68e0 46bd a9a0 f83f

block1.0.br1_bn.running_mean f4 [4]
-5.294141 -0.13036901 1.0560975 -5.6183486
00000000: 9a69 a9c0 747f 05be 342e 873f 83c9 b3c0

block1.0.br1_bn.running_var f4 [4]
8.553905 0.011988098 0.15967704 9.677419
00000000: cbdc 0841 ba69 443c 6182 233e b5d6 1a41

block1.0.br2_conv1.weight f4 [8, 16, 1, 1]
-0.07447882 -0.03571821 -0.23439184 -0.009069656 -0.36522186 0.37072697 0.0135998 1.0459124
-0.10378137 0.41077793 0.33281443 -0.9211358 -0.8641413 -1.0829618 -0.3227163 -0.05458828
0.09996678 0.09762476 0.114200205 -0.1081916 2.1795263 -0.11178704 -0.025912508 0.19282618
0.06407257 -0.035439625 0.2502435 -0.0228506 -0.03252358 0.21315023 -0.8943631 0.1566096
0.033988446 -0.04415248 -0.20923828 -0.01934153 -0.21254495 -1.0839695 0.028371023 -1.083637
-0.10542551 -1.1488216 0.17718716 -0.3116603 0.072689585 0.31133437 -0.08554353 -0.027062725
-0.012798541 -0.005069617 -0.08963467 -0.0670188 0.00058949046 0.014005666 -0.0616053 -0.13007924
-0.06277381 -0.08572465 -0.11619128 -0.001406174 -0.10496162 -0.0067266417 0.00964641 -0.057543036
0.031237584 -0.040685862 0.03376015 -0.077437215 0.59867144 1.0696656 -0.074434616 0.49522084
0.72151923 -0.026485275 -0.01861691 0.18930134 -0.75676453 0.15981959 0.8152673 0.046765506
-0.04406531 0.025109738 0.029684553 -0.011111426 -1.3413076 -0.020265276 0.012586345 -0.2648752
0.03207038 0.09662561 -0.8769137 -0.28328243 -0.17245743 0.11311476 -1.8958877 0.0048356717
-0.08166988 0.08641221 1.3285911 0.08591596 0.44139308 -0.7629877 0.13002002 -0.42574832
0.14979985 0.21561037 0.4051721 -1.0813916 -0.6610554 0.09901713 0.3881545 -0.017112594
-0.012202789 0.004344556 -2.110141 -0.13510294 0.03253242 0.405234 -0.072088525 0.014980592
-0.3081285 -0.26479104 -0.18375047 1.0841361 -0.47472495 0.07848828 -0.10764992 0.0024365992
00000000: 5a88 98bd 424d 12bd 6a04 70be e598 14bc
00000010: 5cfe babe edcf bd3e b2d1 5e3c 75e0 853f
00000020: 548b d4bd 7c51 d23e a766 aa3e 8ecf 6bbf
00000030: 5d38 5dbf 7e9e 8abf 123b a5be f697 5fbd
00000040: 62bb cc3d 7def c73d cce1 e93d 8f93 ddbd
00000050: 5c7d 0b40 9bf0 e4bd 7846 d4bc 3a74 453e
00000060: 7b38 833d 2429 11bd eb1f 803e 2e31 bbbc
00000070: 7237 05bd 0e44 5a3e fbf4 64bf 445e 203e
00000080: 7837 0b3d 3bd9 34bd 8f42 56be 2172 9ebc
00000090: 62a5 59be 83bf 8abf 596a e83c 9eb4 8abf
000000a0: 54e9 d7bd 960c 93bf 8d70 353e f091 9fbe
000000b0: 47de 943d 3867 9f3e 7231 afbd a6b2 ddbc
000000c0: f9b0 51bc 081f a6bb 6292 b7bd 2741 89bd
000000d0: 0988 1a3a 0578 653c d755 7cbd 7e33 05be
000000e0: 8e8f 80bd 6890 afbd b2f5 edbd 5f4f b8ba
000000f0: 1ef6 d6bd 296b dcbb fa0b 1e3c 3fb2 6bbd
00000100: f6e5 ff3c 38a6 26bd 1548 0a3d 6797 9ebd
00000110: 8842 193f cdea 883f 2d71 98bd 968d fd3e
00000120: 7cb5 383f a6f7 d8bc 7d82 98bc 36d8 413e
00000130: 52bb 41bf bfa7 233e 5cb5 503f 308d 3f3d
00000140: d47d 34bd f0b2 cd3c 052d f33c b30c 36bc
00000150: f8af abbf 5d03 a6bc f536 4e3c b99d 87be
00000160: 3b5c 033d a6e3 c53d 6b7d 60bf 650a 91be
00000170: ae98 30be b6a8 e73d 73ac f2bf 8e74 9e3b
00000180: 8a42 a7bd e2f8 b03d 460f aa3f b5f4 af3d
00000190: 46fe e13e 2953 43bf f823 053e affb d9be
000001a0: 2265 193e f7c8 5c3e b872 cf3e 0a6b 8abf
000001b0: ed3a 29bf 7ec9 ca3d 30bc c63e b62f 8cbc
000001c0: 35ee 47bc c75c 8e3b 8d0c 07c0 6d58 0abe
000001d0: b740 053d d57a cf3e 26a3 93bd 2871 753c
000001e0: 05c3 9dbe b192 87be 1529 3cbe f9c4 8a3f
000001f0: 260f f3be 77be a03d 9077 dcbd 5aaf 1f3b

block1.0.br2_bn1.weight f4 [8]
1.0461653 1.0620488 1.3075855 -0.008723477 0.7130589 0.9759158 0.8633386 0.72405916
00000000: bfe8 853f 37f1 873f f65e a73f eaec 0ebc
00000010: 078b 363f 9ed5 793f c203 5d3f f15b 393f

block1.0.br2_bn1.bias f4 [8]
1.3982983 1.0817864 -0.19904958 -0.0897632 0.8969617 0.6495041 0.27674094 0.85304666
00000000: 70fb b23f fa77 8a3f a7d3 4bbe c5d5 b7bd
00000010: 489f 653f e745 263f fdb0 8d3e 4461 5a3f

block1.0.br2_bn1.running_mean f4 [8]
-4.2113824 3.6889222 -3.8906643 -0.48642236 4.2660675 -5.992696 0.9142888 -2.0853386
00000000: a5c3 86c0 4d17 6c40 a500 79c0 5a0c f9be
00000010: a083 8840 2ac4 bfc0 d50e 6a3f 3076 05c0

block1.0.br2_bn1.running_var f4 [8]
7.287381 3.8943825 3.5396864 0.0626332 2.0046976 2.102112 1.8661228 2.8235085
00000000: 3a32 e940 903d 7940 398a 6240 d645 803d
00000010: f74c 0040 0189 0640 1ddd ee3f 5db4 3440

block1.0.br2_conv2.weight f4 [8, 8, 3, 3]
-0.16677906 -0.003477752 -0.09711879 -0.30130067 1.1707233 0.10847581 0.13126208 -0.012763824
-0.2248226 0.6557718 -0.35864842 0.247946 -0.632554 -2.102511 -0.6685803 0.26693135
-0.17044006 0.71787167 0.024081891 -0.33140054 -0.41254607 0.028476099 0.83881015 -0.029066032
-0.15711026 0.025626829 0.06518698 0.008926508 0.033971146 0.038831662 -0.017991517 -0.003771269
-0.01619413 -0.016258871 -0.055030376 -0.0070340266 -0.19851401 -0.24046014 0.043768384 -0.14934011
-0.406219 0.08032129 0.00059433974 0.079501234 0.22284055 0.1896596 0.2354064 -0.28481904
0.45824212 1.1562173 -0.69277453 -0.7609129 -0.72061896 -0.004896171 0.1684397 -0.037056427
-0.22464572 -0.093376234 0.07012375 -0.08610745 0.124552034 0.049099043 0.00013822841 -0.18931457
-0.02639872 0.20341282 -0.04574343 0.33214474 -0.013572999 -0.12345816 0.017234014 0.1463661
-0.034222536 0.7780267 -0.053550184 -0.028516874 1.7384393 0.342036 0.04867911 -0.10724482
-0.31090808 -0.054290537 -0.24222802 -0.6186156 -0.25108552 1.7483801 0.6811143 -0.42074153
0.5159206 -0.46333823 -0.014631 -0.37172017 0.0010916924 -0.1466066 0.38781896 0.23220025
0.16726893 0.09022075 0.08306303 -0.07761381 -0.057404254 -0.047118377 -0.062938966 -0.06568344
-0.0778353 -0.011944141 -0.06295382 -0.018477917 -0.12949757 -0.5884982 0.20313458 0.59219337
-0.21908346 -0.18896104 0.13024253 -0.09570866 -0.0058065285 -0.12698978 -0.44698167 -0.13907675
-0.31864116 0.61055696 0.335272 0.14455068 0.22283046 -0.112810485 0.21130183 0.5283001
0.21007048 0.7586921 -0.46979076 0.31041735 0.13416335 0.115109615 0.12672935 0.103976145
0.05744189 -0.08240935 0.40183547 0.93168026 -0.21614246 0.050596 0.06209366 0.047704134
-0.03863758 -0.1435954 -0.054805882 -0.62425363 -0.14094593 -0.20261393 0.24919009 -0.16990225
-0.0074524204 -0.2205707 -0.16573173 0.08173442 -0.20519513 0.39767742 0.7517306 -0.17113239
0.34625822 0.05107542 0.112326905 0.024849918 -0.091271386 0.3928106 0.7612332 0.1542775
-0.18475065 0.07045426 0.17876863 -0.063181154 -0.023023484 -0.004546463 -0.03624019 -0.024934031
-0.058055222 -0.016938314 -0.04223401 -0.028032666 -0.094573945 -0.041572735 0.18291302 -0.43807137
-0.7031485 -0.5035961 0.056717336 -0.07838463 -0.29715335 -0.5016023 0.2934174 -0.015944077
-0.08082524 1.1176186 0.09715135 0.030470977 0.28420514 -0.22349061 -0.18113254 0.1796228
0.058784254 0.09187853 0.37315696 0.079044 0.06849055 0.16636427 0.0869836 -0.032737013
-0.019950982 -0.0121516725 -0.012325752 0.21735728 -0.06178184 0.0113983555 0.04663152 -0.09468488
0.47533032 -0.5059085 -0.75012255 0.03505658 -0.6309494 0.029711073 -0.78487575 -0.0904588
0.96122277 -0.08059843 0.011064088 0.06243794 -0.014848626 0.5444649 -0.638716 0.0340509
0.61995375 -0.48043987 0.20012772 -0.40677598 -0.06468943 -0.15747191 0.78231657 0.18110496
0.32954207 0.30058402 -0.06639859 -0.04624766 -0.0174762 -0.04888929 -0.02030514 0.0015945794
-0.009805668 -0.0082544815 -0.01992375 -0.03380355 -0.3862944 0.24379924 0.15964647 0.6370022
00000000: 21c8 2abe ffea 63bb 37e6 c6bd 1544 9abe
00000010: 43da 953f 9128 de3d 9169 063e 5c1f 51bc
00000020: e537 66be a9e0 273f c4a0 b7be 8ee5 7d3e
00000030: 0fef 21bf 8a8f 06c0 1428 2bbf 3aab 883e
00000040: d787 2ebe 70c6 373f 6347 c53c 55ad a9be
00000050: 3d39 d3be b546 e93c 43bc 563f e31b eebc
00000060: 83e1 20be 5bef d13c c080 853d 7d40 123c
00000070: 5425 0b3d f30d 1f3d f262 93bc 6527 77bb
00000080: 8da9 84bc 5331 85bc 8867 61bd b17d e6bb
00000090: 4247 4bbe 2f3b 76be 7a46 333d 9dec 18be
000000a0: f0fb cfbe 7d7f a43d 77cd 1b3a 8bd1 a23d
000000b0: 5030 643e 2036 423e 600e 713e cdd3 91be
000000c0: b69e ea3e eefe 933f ac59 31bf 30cb 42bf
000000d0: 7c7a 38bf 0f70 a0bb 757b 2c3e 7bc8 17bd
000000e0: 8709 66be 0a3c bfbd 0a9d 8f3d 1a59 b0bd
000000f0: 2315 ff3d 141c 493d 68f1 1039 aedb 41be
00000100: 2142 d8bc 734b 503e 765d 3bbd e00e aa3e
00000110: 4961 5ebc a2d7 fcbd 592e 8d3c ffe0 153e
00000120: ee2c 0cbd c22c 473f 7057 5bbd 389c e9bc
00000130: 2e85 de3f 581f af3e bf63 473d 2ca3 dbbd
00000140: 582f 9fbe c15f 5ebd 9f0a 78be 985d 1ebf
00000150: 488e 80be ebca df3f 825d 2e3f 6f6b d7be
00000160: 5f13 043f ab3a edbe ddb6 6fbc 1b52 bebe
00000170: 1e17 8f3a 0a20 16be 3590 c63e e7c5 6d3e
00000180: 8c48 2b3e a8c5 b83d f31c aa3d fdf3 9ebd
00000190: b920 6bbd 33ff 40bd 25e6 80bd 0a85 86bd
000001a0: 1d68 9fbd 5cb1 43bc efed 80bd 005f 97bc
000001b0: 039b 04be d1a7 16bf 8302 503e fc99 173f
000001c0: 6a57 60be 017f 41be 4c5e 053e e702 c4bd
000001d0: b144 bebb 9c09 02be c8da e4be 236a 0ebe
000001e0: ef24 a3be 764d 1c3f c6a8 ab3e 1805 143e
000001f0: ab2d 643e 2f09 e7bd 825f 583e ad3e 073f
00000200: b71c 573e a539 423f 6a88 f0be 06ef 9e3e
00000210: 1e62 093e 97be eb3d 57c5 013e 72f1 d43d
00000220: 3048 6b3d 3cc6 a8bd 61bd cd3e 9982 6e3f
00000230: 7354 5dbe c03d 4f3d ec55 7e3d 6965 433d
00000240: 7042 1ebd ac0a 13be 227c 60bd 16cf 1fbf
00000250: 2154 10be 077a 4fbe b02b 7f3e dbfa 2dbe
00000260: 6f33 f4bb 49dd 61be 94b5 29be 6064 a73d
00000270: ac1e 52be 609c cb3e 6b71 403f 543d 2fbe
00000280: c248 b13e 7634 513d a60b e63d 0e92 cb3c
00000290: 7eec babd 791e c93e 2ee0 423f ecfa 1d3e
000002a0: 462f 3dbe 534a 903d 200f 373e 1f65 81bd
000002b0: bf9b bcbc 7ffa 94bb 9870 14bd 7442 ccbc
000002c0: 50cb 6dbd 38c2 8abc 92fd 2cbd c3a4 e5bc
000002d0: fcaf c1bd 2c48 2abd 8d4d 3b3e e44a e0be
000002e0: 8a01 34bf adeb 00bf 7050 683d 1f88 a0bd
000002f0: 7c24 98be 0269 00bf ce3a 963e 279d 82bc
00000300: b487 a5bd 200e 8f3f 49f7 c63d 459e f93c
00000310: 5683 913e b9da 64be cf7a 39be 0aef 373e
00000320: c2c7 703d d02a bc3d 6e0e bf3e d2e1 a13d
00000330: c644 8c3d 655b 2a3e 7524 b23d 3f17 06bd
00000340: 3e70 a3bc cf17 47bc f3f1 49bc e892 5e3e
00000350: f40e 7dbd 2bc0 3a3c b100 3f3d 25ea c1bd
00000360: 7f5e f33e 3883 01bf 0808 40bf 7d97 0f3d
00000370: e685 21bf a364 f33c 9eed 48bf 7742 b9bd
00000380: b212 763f ca10 a5bd 2646 353c edbe 7f3d
00000390: a747 73bc 0d62 0b3f e482 23bf f578 0b3d
000003a0: 4ab5 1e3f 37fc f5be 48ee 4c3e f144 d0be
000003b0: e47b 84bd 5140 21be e645 483f 9473 393e
000003c0: bdb9 a83e 26e6 993e fcfb 87bd 306e 3dbd
000003d0: 3f2a 8fbc 2340 48bd f756 a6bc 3501 d13a
000003e0: f4a7 20bc ce3d 07bc 2237 a3bc 9775 0abd
000003f0: 61c8 c5be 82a6 793e 5d7a 233e 9412 233f

block1.0.br2_bn2.weight f4 [8]
0.8175347 0.95470226 0.5752935 0.66759276 0.012246605 0.5321857 0.69556046 -0.6091403
00000000: f449 513f 5e67 743f 6f46 133f 5ce7 2a3f
00000010: fca5 483c 523d 083f 4010 323f 9ef0 1bbf

block1.0.br2_bn2.bias f4 [8]
0.58817065 0.9237812 0.62924683 2.0850313 -0.12740764 -0.41891536 1.1674509 0.2519196
00000000: 5a92 163f ed7c 6c3f 5216 213f 2771 0540
00000010: 2677 02be 137c d6be 086f 953f 9bfb 803e

block1.0.br2_bn2.running_mean f4 [8]
-2.0852966 6.654201 -0.5854616 1.4670047 -0.05647099 1.347924 -4.6913543 0.33447978
00000000: 8075 05c0 37ef d440 d0e0 15bf cfc6 bb3f
00000010: 204e 67bd c688 ac3f 931f 96c0 ef40 ab3e

block1.0.br2_bn2.running_var f4 [8]
6.1277323 9.330017 2.8975308 4.733957 0.39191335 0.796241 4.8547673 3.557787
00000000: 6216 c440 c047 1541 2571 3940 937c 9740
00000010: dea8 c83e 73d6 4b3f 415a 9b40 c8b2 6340

block1.0.br3_conv1.weight f4 [2, 16, 1, 1]
0.075173326 0.0165772 0.025751451 -0.025197625 -0.031166527 0.031656466 0.00029276294 0.0092928205
0.0744444 0.0689298 0.067796566 0.07547393 -0.13128512 0.012661973 0.039421882 -0.04171937
0.040174667 -0.081936955 -0.6542137 -0.018286776 0.2075049 -0.6034541 -0.009372416 0.33772758
0.32218406 0.68860286 -0.50958824 -0.8292412 -2.1791484 0.79881686 0.07817654 -0.07576514
00000000: 79f4 993d e8cc 873c b5f4 d23c 406b cebc
00000010: f250 ffbc 36aa 013d fa7d 9939 ea40 183c
00000020: 4e76 983d 112b 8d3d edd8 8a3d 1392 9a3d
00000030: 9b6f 06be 2a74 4f3c d778 213d eee1 2abd
00000040: 318e 243d 90ce a7bd 8d7a 27bf 26ce 95bc
00000050: 2a7c 543e f87b 1abf c38e 19bc a1ea ac3e
00000060: 4ff5 a43e 4748 303f 6074 02bf 2749 54bf
00000070: 2b77 0bc0 437f 4c3f 061b a03d c12a 9bbd

block1.0.br3_bn1.weight f4 [2]
0.017221868 1.1831863
00000000: e014 8d3c a672 973f

block1.0.br3_bn1.bias f4 [2]
-0.074862406 0.1251992
00000000: 7651 99bd 3834 003e

block1.0.br3_bn1.running_mean f4 [2]
0.25132874 -1.4881907
00000000: 29ae 803e 087d bebf

block1.0.br3_bn1.running_var f4 [2]
0.045790028 9.625411
00000000: 538e 3b3d af01 1a41

block1.0.br3_conv2.weight f4 [2, 2, 5, 5]
-0.016881406 0.003496251 -0.060713425 -0.009270116 0.0028089017 -0.068173856 -0.060170684 -0.08313253
-0.028778134 -0.011641614 0.011975214 0.0054836413 -0.040595762 -0.006892191 0.004101275 0.036702722
0.017054223 -0.03158879 -0.020189686 -0.027710464 0.053749625 -0.00822743 -0.02952237 -0.005649086
-0.010857229 0.06325378 0.1098934 0.30719715 0.14246966 -0.049474172 0.020017304 -0.12791954
-0.665284 -0.1652883 0.024214165 -0.2687317 -0.622799 -1.8219835 -0.64763135 -0.24429391
0.1548282 0.13121867 -0.7737881 0.071403 0.12234114 -0.05822952 0.09809014 0.11338465
0.1582037 -0.12597306 -0.12515281 -0.11043377 -0.056589868 0.08183465 0.040874656 -0.15509386
-0.09889103 -0.070113495 0.072649404 -0.061195917 -0.0315702 -0.047917526 0.0051844637 0.049579933
-0.009362342 0.015408545 0.05859114 0.06983788 0.11557606 0.12542693 0.043308314 0.08331751
0.1614377 0.079616405 0.16742416 -0.028419474 -0.0874581 -0.052142717 -0.07975884 0.08452583
0.03386842 -0.052966677 0.05799536 -0.06251814 0.019564372 0.03925132 -0.08369323 -0.024181996
0.04704435 0.052823074 0.08772614 0.07899772 0.18441282 0.06426949 0.10304335 -0.013389304
0.011529953 0.22740155 0.025374811 0.09832122
00000000: e04a 8abc 5c21 653b a4ae 78bd afe1 17bc
00000010: 8d15 383b bc9e 8bbd 8975 76bd 6341 aabd
00000020: 1fc0 ebbc 78bc 3ebc b033 443c 1eb0 b33b
00000030: be47 26bd e3d7 e1bb fd63 863b 9855 163d
00000040: 4cb5 8b3c 3f63 01bd d764 a5bc 0e01 e3bc
00000050: 9128 5c3d 58cc 06bc e6d8 f1bc f81b b9bb
00000060: 85e2 31bc 338b 813d ca0f e13d f248 9d3e
00000070: 91e3 113e 6ea5 4abd 54fb a33c 57fd 02be
00000080: 0d50 2abf 5641 29be c95c c63c 3497 89be
00000090: c16f 1fbf c136 e9bf 2bcb 25bf 2f28 7abe
000000a0: 498b 1e3e 305e 063e fa16 46bf bc3b 923d
000000b0: fe8d fa3d 1482 6ebd 7ce3 c83d 3636 e83d
000000c0: 2700 223e 15ff 00be 0f28 00be 1a2b e2bd
000000d0: c7ca 67bd ed98 a73d 2f6c 273d edd0 1ebe
000000e0: 6187 cabd aa97 8fbd 36c9 943d 92a8 7abd
000000f0: c14f 01bd 2b45 44bd 6fe2 a93b 5414 4b3d
00000100: 8264 19bc 1f74 7c3c 43fd 6f3d 2a07 8f3d
00000110: 24b3 ec3d eb6f 003e 0f64 313d 5fa2 aa3d
00000120: ed4f 253e ed0d a33d 3d71 2b3e f5cf e8bc
00000130: 3b1d b3bd 9a93 55bd 9a58 a3bd e11b ad3d
00000140: 9db9 0a3d 96f3 58bd 8b8c 6d3d 8309 80bd
00000150: 7645 a03c fec5 203d 5b67 abbd 5219 c6bc
00000160: 94b1 403d 025d 583d c3a9 b33d 8ec9 a13d
00000170: b7d6 3c3e b99f 833d 6408 d33d d05e 5bbc
00000180: 21e8 3c3c f4db 683e d6de cf3c a35c c93d

block1.0.br3_bn2.weight f4 [2]
0.64101154 0.0028953704
00000000: 5519 243f 41c0 3d3b

block1.0.br3_bn2.bias f4 [2]
1.3717529 -0.027216507
00000000: 9995 af3f 27f5 debc

block1.0.br3_bn2.running_mean f4 [2]
-1.8159367 0.28227523
00000000: 9d70 e8bf 6186 903e

block1.0.br3_bn2.running_var f4 [2]
2.0663095 0.063565336
00000000: 6a3e 0440 8b2e 823d

block1.0.br4_conv.weight f4 [2, 16, 1, 1]
-0.059878483 0.02896736 0.5304304 -0.010903234 -0.618133 0.10607289 -0.03975065 -0.40390676
-0.13721645 -0.2834057 -0.89210665 -0.58952 -0.061506093 -0.47681642 -0.043527454 -0.096760236
-0.001457862 -0.037215326 0.14003858 0.014659795 1.291912 0.40101993 -0.029208336 0.27188134
0.95198935 0.098825976 0.026640374 -0.1583251 0.1998756 -0.52312964 1.56494 -0.038608417
00000000: 2443 75bd f54c ed3c 49ca 073f 7aa3 32bc
00000010: f73d 1ebf be3c d93d 94d1 22bd decc cebe
00000020: 7882 0cbe 8d1a 91be 1a61 64bf c8ea 16bf
00000030: d0ed 7bbd 4821 f4be d849 32bd 3b2a c6bd
00000040: bb15 bfba 196f 18bd 4666 0f3e a32f 703c
00000050: 5f5d a53f 7c52 cd3e 5246 efbc 0834 8b3e
00000060: 93b5 733f 4665 ca3d ea3c da3c fa1f 22be
00000070: 30ac 4c3e d3eb 05bf f44f c83f dc23 1ebd

block1.0.br4_bn.weight f4 [2]
0.6164277 0.5728735
00000000: 35ce 1d3f d6a7 123f

block1.0.br4_bn.bias f4 [2]
0.40252334 1.5411193
00000000: 8a17 ce3e 6643 c53f

block1.0.br4_bn.running_mean f4 [2]
-4.7497315 5.968642
00000000: cdfd 97c0 1eff be40

block1.0.br4_bn.running_var f4 [2]
1.8038651 2.7108915
00000000: 0de5 e63f 3f7f 2d40

block1.1.br1_conv.weight f4 [4, 16, 1, 1]
-0.5314822 0.020826507 -0.026817637 -1.7233871 0.10354268 -0.35857782 0.28089347 -1.3853046
0.019627344 0.14883514 0.7485515 -0.06382157 -0.15509942 -0.0474832 0.5393887 -0.16804062
0.74497086 0.048741743 0.032285925 1.6311029 0.5208249 -0.009172469 0.6477616 -0.97058505
0.07340763 -0.001065183 0.33450168 0.29459354 0.61422503 -0.046948344 0.37425625 -0.59216845
-0.15296035 -0.034554165 -0.050657228 0.09126378 1.7115561 -0.38145325 -0.27600607 -0.06848421
0.016101496 -0.04655686 -0.6880915 0.61483586 -0.026288329 0.02644436 0.39944655 -0.35249293
0.25927982 0.0050957254 0.031593606 -0.047791548 0.2693892 1.7175751 0.45141798 -0.07481644
0.029254507 0.11002019 -0.42780018 0.28919333 -1.5877193 -0.05893476 -0.28666902 -0.14402092
00000000: 380f 08bf 5a9c aa3c a9b0 dbbc f397 dcbf
00000010: 2f0e d43d 8397 b7be 45d1 8f3e a951 b1bf
00000020: 86c9 a03c 3d68 183e 12a1 3f3f e2b4 82bd
00000030: 62d2 1ebe be7d 42bd 6115 0a3f d712 2cbe
00000040: 69b6 3e3f 6ca5 473d 3f3e 043d fbc7 d03f
00000050: c854 053f 2048 16bc b4d3 253f 4378 78bf
00000060: bd56 963d 9c9d 8bba ce43 ab3e f7d4 963e
00000070: da3d 1d3f e84c 40bd 849e bf3e 5a98 17bf
00000080: a3a1 1cbe ab88 0dbd f47d 4fbd 81e8 ba3d
00000090: 4514 db3f d74d c3be ab50 8dbe 7341 8cbd
000000a0: 49e7 833c 68b2 3ebd c426 30bf e265 1d3f
000000b0: 9f5a d7bc d8a1 d83c 4284 cc3e f479 b4be
000000c0: 53c0 843e 0bfa a63b 4c68 013d 12c1 43bd
000000d0: 62ed 893e 80d9 db3f 4220 e73e 5d39 99bd
000000e0: 26a7 ef3c 4452 e13d a008 dbbe 2611 943e
000000f0: 633a cbbf 9365 71bd 48c6 92be 387a 13be

block1.1.br1_bn.weight f4 [4]
0.85779864 0.9890345 0.7938253 0.9557876
00000000: b198 5b3f 5d31 7d3f 2338 4b3f 7fae 743f

block1.1.br1_bn.bias f4 [4]
2.138673 2.0156703 0.7900501 1.5558374
00000000: 05e0 0840 be00 0140 b940 4a3f ae25 c73f

block1.1.br1_bn.running_mean f4 [4]
-6.460693 3.6627545 -0.51496416 -0.66990423
00000000: ffbd cec0 926a 6a40 b1d4 03bf d87e 2bbf

block1.1.br1_bn.running_var f4 [4]
6.749142 6.7078733 2.048758 5.5749383
00000000: f9f8 d740 e6a6 d640 da1e 0340 e565 b240

block1.1.br2_conv1.weight f4 [8, 16, 1, 1]
0.14984241 0.08147927 0.07823076 0.4492984 0.07452888 -0.53616315 0.46213844 -0.23083551
-0.05128018 -0.26449248 -0.36939594 -0.43288618 -0.07422667 -0.03252664 -0.111714415 -0.8134464
0.67782503 -0.013168146 -0.0018659187 -0.56612927 0.056845926 0.112270564 -0.24487425 -0.0511703
0.024151076 -0.017821698 0.8788904 -0.45150048 -0.6523023 -0.07513265 0.12651245 -0.3933424
0.26746753 -0.0018608116 -0.02446388 0.28132677 -0.08859619 -0.11398827 -0.072354496 0.37100333
-0.050270833 -0.020932904 0.39808744 0.07260026 -0.41617677 -0.054410055 -0.676172 0.7319764
-0.021938639 -0.056017097 0.004969951 0.020064807 -0.07250845 -0.05928004 0.10066862 -0.124753825
-0.049281362 0.019383194 0.063709274 -0.06702436 -0.02947382 0.049129557 -0.015898636 0.006706628
-0.57253295 -0.028890034 -0.007558536 -0.49162945 0.35728183 -0.07007975 0.5569103 0.51370066
-0.015347894 -0.34269685 -0.4498824 -0.24135727 -0.011934146 -0.07952881 0.1872639 -1.0932722
-0.22134687 -0.04453895 -0.017594181 0.011985762 -0.066702135 0.10250034 0.10966263 -0.14366388
0.08566846 0.0024047184 0.08819447 -0.12801692 -0.039337277 0.08212882 -0.081903294 -0.25189686
0.5617571 -0.012638579 0.009209503 0.64482737 0.24149017 0.24766812 0.057955246 0.5926372
-0.05652272 0.47041586 -0.2012268 -0.83818614 -0.19667965 -0.00468144 0.22853208 -0.30735427
-1.7005469 0.02784727 -0.0282687 1.0703772 -0.21439831 0.07474218 -0.55750406 -0.881667
-0.049006764 -0.2921148 -0.68944937 -0.18515743 -0.062594004 -0.08413147 0.48073474 0.16845517
00000000: 4a70 193e 9ade a63d 7337 a03d 710a e63e
00000010: 99a2 983d fd41 09bf 699d ec3e 2560 6cbe
00000020: 2b0b 52bd 8f6b 87be 7721 bdbe 42a3 ddbe
00000030: 2704 98bd a73a 05bd 87ca e4bd 063e 50bf
00000040: f185 2d3f 35bf 57bc d891 f4ba d9ed 10bf
00000050: 46d7 683d 1cee e53d 51c0 7abe f397 51bd
00000060: 7ad8 c53c cffe 91bc f6fe 603f 122b e7be
00000070: 49fd 26bf 26df 99bd 7b8c 013e 2d64 c9be
00000080: 81f1 883e 7ae6 f3ba 7a68 c8bc 100a 903e
00000090: eb71 b5bd af72 e9bd 982e 94bd 26f4 bd3e
000000a0: cae8 4dbd 7b7b abbc 1ed2 cb3e 72af 943d
000000b0: 1f15 d5be 14dd 5ebd 9c19 2dbf ce62 3b3f
000000c0: a9b8 b3bc 2f72 65bd f9da a23b f35e a43c
000000d0: 4f7f 94bd a1cf 72bd 592b ce3d ef7e ffbd
000000e0: 41db 49bd 81c9 9e3c 027a 823d 1144 89bd
000000f0: 1573 f1bc 133c 493d db3d 82bc 46c3 db3b
00000100: 8591 12bf cbaa ecbc 98ad f7bb dbb6 fbbe
00000110: a5ed b63e f985 8fbd ac91 0e3f e381 033f
00000120: bc75 7bbc f675 afbe fc56 e6be 5c26 77be
00000130: 7087 43bc 00e0 a2bd 1cc2 3f3e 58f0 8bbf
00000140: c1a8 62be 796e 36bd ac21 90bc ee5f 443c
00000150: 219b 88bd b3eb d13d cd96 e03d a01c 13be
00000160: f272 af3d 7b98 1d3b 4d9f b43d de16 03be
00000170: 2020 21bd 2833 a83d eabc a7bd a0f8 80be
00000180: 50cf 0f3f 0b12 4fbc 75e3 163c 6813 253f
00000190: 3349 773e b69c 7d3e 7b62 6d3d 12b7 173f
000001a0: 5e84 67bd 59da f03e 660e 4ebe 5e93 56bf
000001b0: 6466 49be c466 99bb 5004 6a3e 8a5d 9dbe
000001c0: 85ab d9bf f51f e43c c393 e7bc 1f02 893f
000001d0: 3b8b 5bbe 6e12 993d 96b8 0ebf eeb4 61bf
000001e0: 51bb 48bd 1290 95be c17f 30bf e999 3dbe
000001f0: 4931 80bd 1f4d acbd dd22 f63e 837f 2c3e

block1.1.br2_bn1.weight f4 [8]
0.5098144 0.5770029 -0.7160329 0.0087082 0.6429692 0.3462839 0.89460635 0.71034354
00000000: 3283 023f 76b6 133f ef4d 37bf d7ac 0e3c
00000010: a199 243f 204c b13e ec04 653f 13d9 353f

block1.1.br2_bn1.bias f4 [8]
0.8270323 0.5455648 -0.39687318 -0.051572207 1.1223671 -0.07363928 0.36624345 1.3567452
00000000: 64b8 533f 22aa 0b3f f632 cbbe 613d 53bd
00000010: baa9 8f3f 31d0 96bd 4384 bb3e d4a9 ad3f

block1.1.br2_bn1.running_mean f4 [8]
-1.5742329 -0.8120938 2.1882699 -0.28163812 -2.434951 -0.8971044 2.6178014 -3.1505413
00000000: 7780 c9bf 61e5 4fbf 9d0c 0c40 df32 90be
00000010: 3dd6 1bc0 a2a8 65bf 0f8a 2740 78a2 49c0

block1.1.br2_bn1.running_var f4 [8]
0.5221554 0.82703406 0.5330089 0.014804126 1.5207806 0.050479803 2.0322886 2.2807035
00000000: faab 053f 81b8 533f 4573 083f 018d 723c
00000010: f0a8 c23f e9c3 4e3d 0411 0240 0cf7 1140

block1.1.br2_conv2.weight f4 [8, 8, 3, 3]
0.004019129 0.15369217 0.19432598 0.10736356 0.4391411 0.13728204 -0.15745537 -0.027312256
-0.056589153 0.15458769 0.36219576 -0.03812636 -0.1554413 -0.15352985 -0.041480407 -0.095621824
-0.15881024 0.09763351 -0.10023128 -0.17838599 -0.16969843 -0.1502211 -0.20906559 -0.21635829
-0.06669767 -0.095937796 -0.11498336 -0.040124636 0.0015501345 -0.007133452 -0.04330556 0.016622547
-0.024226623 -0.0030524489 0.0042210864 0.020741243 -0.0143181505 0.52069056 0.0775785 0.1177303
0.3284094 -0.2186389 0.13365622 -0.10233399 -0.19231229 -0.039684884 -0.05928092 -0.005978238
-0.04269218 -0.012835782 0.00094376184 0.012936095 0.04034985 0.1436356 -0.09537167 0.38099664
0.096440844 -0.08888859 0.65673023 0.026057588 -0.120375976 0.07279464 -0.24567984 -0.19824864
-0.5422557 -0.12716578 0.03210464 -0.14075702 -0.016067004 -0.17294122 0.14874272 -0.01941756
-0.03485761 -0.18965587 -0.3521212 -0.15980753 -0.3810952 -0.42242736 0.2541604 -0.114388414
-0.08503843 -0.084873766 -0.25495774 0.012873184 -0.043209985 -0.015189832 0.15675852 -0.06485493
0.11133104 0.09707155 -0.11142818 -0.12009308 -0.08771156 -0.11640874 -0.033225328 0.06404787
-0.06446428 0.021853652 0.14993596 0.070175774 0.04083061 0.025577093 0.067904904 -0.022687042
0.017811494 0.019944796 0.005015868 0.01641068 -0.10356083 -0.27406648 -0.2619379 -0.1909093
-0.49035734 -0.30060083 0.068420246 0.11121 -0.034666162 0.054135006 0.052254315 0.025883425
-0.0027717925 -0.0577752 -0.024175368 0.031933036 0.050912224 0.11343918 -0.25113687 0.0026840742
-0.09705891 -0.02279605 0.23923905 -0.15323302 0.17844965 0.015041292 0.07478745 0.038678598
0.25876692 -0.06779102 -0.22478926 -0.046207983 -0.29449794 -0.15062836 -0.096912265 -0.110145405
0.002375101 0.054310948 -0.19743219 0.5616658 0.017906642 0.039387733 0.011073626 0.6035461
-0.55988586 -0.029243724 0.6205557 -0.015829012 -0.42210954 0.9441499 -0.21634725 -0.06343503
-0.0707437 -0.29791513 0.17509963 0.33478558 -0.20923473 0.38698632 0.06019247 -0.08000998
-0.15738532 -0.12411698 -0.13381845 0.00870219 -0.0056678792 -0.0033375628 -0.015374149 -0.011603801
0.062933594 0.042596303 -0.039560363 0.00062510086 -0.05551462 0.14478904 -0.031004457 0.24218197
0.89928645 -0.419099 -0.41758543 -0.04592653 -0.036815733 -0.027082164 -0.10353825 -0.14285
-0.10124045 -0.06342949 -0.1482191 0.0022540665 -0.085757464 -0.175303 0.18807966 0.13447818
0.08210851 0.6675075 -1.5061923 -0.13151363 0.17476206 0.33806986 0.029369997 0.26084632
-0.77440065 0.40117666 0.2970325 -0.77451575 0.24089977 0.21405731 0.3491585 0.21422414
-0.032103144 0.23706323 -0.00092673406 -0.025457798 -0.22625057 -0.27490973 -0.1487679 -0.0059112534
-0.2298504 0.10717411 -0.21230039 -0.059803754 0.09432919 0.32453772 0.16925277 -0.057366453
-0.21854642 -0.31585702 0.31313258 0.19870976 -0.09154374 0.32496625 0.67094773 0.088437684
0.08534994 0.14345552 0.046133123 0.026754092 -0.022985293 -0.024360454 0.11302903 0.024335476
-0.023523621 -0.01192424 0.0047676153 -0.04114666 -0.1416384 0.1534757 -0.3769155 0.8096963
00000000: e6b2 833b 7b61 1d3e 64fd 463e 6de1 db3d
00000010: 1ad7 e03e aa93 0c3e fb3b 21be f4bd dfbc
00000020: 07ca 67bd 3c4c 1e3e b971 b93e 632a 1cbd
00000030: 012c 1fbe ee36 1dbe 5ce7 29bd 60d5 c3bd
00000040: 279f 22be 14f4 c73d 0f46 cdbd d1aa 36be
00000050: 6dc5 2dbe 8fd3 19be 4a15 56be 078d 5dbe
00000060: ca98 88bd 097b c4bd 657c ebbd bb59 24bd
00000070: e22d cb3a bcbf e9bb 2c61 31bd 022c 883c
00000080: e976 c6bc 980b 48bb 0a51 8a3b 8ae9 a93c
00000090: ad96 6abc fa4b 053f 7ae1 9e3d 951c f13d
000000a0: 4725 a83e e0e2 5fbe 2ddd 083e 7c94 d1bd
000000b0: 83ed 44be 9e8c 22bd 8dd0 72bd 18e5 c3bb
000000c0: ffdd 2ebd 2c4d 52bc c966 773a eaf1 533c
000000d0: e245 253d 3615 133e 3952 c3bd fe11 c33e
000000e0: c782 c53d 390b b6bd 791f 283f b976 d53c
000000f0: ae87 f6bd 5b15 953d 7f93 7bbe b101 4bbe
00000100: 45d1 0abf bf37 02be 2880 033d 9c22 10be
00000110: f39e 83bc 8117 31be 0350 183e 9311 9fbc
00000120: dac6 0ebd 2635 42be 3b49 b4be 96a4 23be
00000130: e91e c3be 6648 d8be 5021 823e 7944 eabd
00000140: a128 aebd 4cd2 adbd d289 82be 0cea 523c
00000150: f4fc 30bd c6de 78bc 4e85 203e a9d2 84bd
00000160: 8701 e43d 73cd c63d 7534 e4bd 5cf3 f5bd
00000170: 1ea2 b3bd b567 eebd 4817 08bd 882b 833d
00000180: d905 84bd 6e06 b33c d088 193e 51b8 8f3d
00000190: ff3d 273d 0d87 d13c ba11 8b3d 2dda b9bc
000001a0: 69e9 913c 4563 a33c 275c a43b b16f 863c
000001b0: b317 d4bd 7152 8cbe b91c 86be ba7d 43be
000001c0: 1e10 fbbe 5ae8 99be ea1f 8c3d 12c2 e33d
000001d0: 1bfe 0dbd abbc 5d3d 9f08 563d 7a09 d43c
000001e0: f6a6 35bb b0a5 6cbd 6c0b c6bc 37cc 023d
000001f0: 5689 503d cd52 e83d 0395 80be 4be7 2f3b
00000200: d2c6 c6bd c8be babc 15fb 743e 1ee9 1cbe
00000210: 81bb 363e c06f 763c 2a2a 993d 736d 1e3d
00000220: 197d 843e 05d6 8abd 282f 66be 9544 3dbd
00000230: 6fc8 96be 523e 1abe f079 c6bd ea93 e1bd
00000240: 95a7 1b3b 2875 5e3d aa2b 4abe 54c9 0f3f
00000250: f3b0 923c 0855 213d 276e 353c ff81 1a3f
00000260: ae54 0fbf 8990 efbc bddc 1e3f d8ab 81bc
00000270: be1e d8be cfb3 713f 228a 5dbe 3aea 81bd
00000280: 13e2 90bd 5588 98be 514d 333e 0469 ab3e
00000290: a141 56be 1223 c63e 618c 763d 46dc a3bd
000002a0: 9e29 21be 0b31 febd b407 09be a193 0e3c
000002b0: 9eb9 b9bb 03bb 5abb dbe3 7bbc de1d 3ebc
000002c0: 54e3 803d 7679 2e3d 0c0a 22bd cfdd 233a
000002d0: 4c63 63bd 9443 143e 0ffd fdbc 8dfe 773e
000002e0: a337 663f 2594 d6be c2cd d5be 751d 3cbd
000002f0: 18cc 16bd 6adb ddbc dd0b d4bd 4547 12be
00000300: 2757 cfbd 52e7 81bd bfc6 17be f6b8 133b
00000310: 9ca1 afbd a182 33be f497 403e a6b4 093e
00000320: 8228 a83d c6e1 2a3f e9ca c0bf 82ab 06be
00000330: d3f4 323e 7e17 ad3e 5999 f03c a68d 853e
00000340: 1f3f 46bf 0767 cd3e a514 983e aa46 46bf
00000350: 6eae 763e d731 5b3e e7c4 b23e 935d 5b3e
00000360: 967e 03bd b4c0 723e 12f0 72ba df8c d0bc
00000370: 3bae 67be f8c0 8cbe 9d56 18be 30b3 c1bb
00000380: e75d 6bbe 1a7e db3d 4665 59be c8f4 74bd
00000390: aa2f c13d cf29 a63e 9950 2d3e 16f9 6abd
000003a0: a2ca 5fbe 03b8 a1be ea52 a03e 927a 4b3e
000003b0: 497b bbbd fa61 a63e 3bc3 2b3f d11e b53d
000003c0: f3cb ae3d 01e6 123e 16f6 3c3d 662b db3c
000003d0: a74b bcbc 938f c7bc c47b e73d 315b c73c
000003e0: 9cb4 c0bc e35d 43bc a839 9c3b 6689 28bd
000003f0: a809 11be bc28 1d3e 12fb c0be 4248 4f3f

block1.1.br2_bn2.weight f4 [8]
0.6503202 0.5574428 0.671922 0.6306665 0.019567875 0.53857905 0.4993232 0.758327
00000000: 627b 263f 92b4 0e3f 1503 2c3f 5c73 213f
00000010: cf4c a03c 51e0 093f 4aa7 ff3e b821 423f

block1.1.br2_bn2.bias f4 [8]
-0.11830942 -0.077341735 1.0352917 0.043474507 -0.10007412 1.0336311 0.37865528 0.6824373
00000000: 364c f2bd 5865 9ebd 7084 843f 5312 323d
00000010: a9f3 ccbd 064e 843f 1bdf c13e 36b4 2e3f

block1.1.br2_bn2.running_mean f4 [8]
0.31894204 -3.7191389 1.4957846 2.693161 -0.42520636 0.18521021 -1.2288448 4.7810245
00000000: 5f4c a33e 5f06 6ec0 df75 bf3f c05c 2c40
00000010: a6b4 d9be bfa7 3d3e c94a 9dbf 27fe 9840

block1.1.br2_bn2.running_var f4 [8]
1.0431837 1.4471234 1.9432876 1.3051159 0.075868 2.60561 1.7658372 4.746162
00000000: 0b87 853f 573b b93f a6bd f83f 0a0e a73f
00000010: af60 9b3d 50c2 2640 f406 e23f 8fe0 9740

block1.1.br3_conv1.weight f4 [2, 16, 1, 1]
-0.37027642 0.045143798 -0.046444584 -0.5942689 0.2814211 -0.07867733 -0.5933702 -0.212887
0.13271327 -0.21542571 0.26479295 -0.52389747 -0.021892617 0.14285293 -0.007415874 -0.49791762
0.2411627 0.009742294 0.03260494 -0.030507624 0.3288743 -0.6087189 -0.44652063 0.18674278
-0.10437136 0.13212001 0.24959406 -0.05878785 -0.38623944 -0.12652469 0.53646237 0.6193327
00000000: df94 bdbe b4e8 383d ad3c 3ebd 0222 18bf
00000010: 6d16 903e 9421 a1bd 1ce7 17bf 0dff 59be
00000020: fde5 073e 8f98 5cbe f192 873e 251e 06bf
00000030: 2558 b3bc 0a48 123e dc00 f3bb 0fef febe
00000040: 5bf3 763e 259e 1f3c c28c 053d 20eb f9bc
00000050: 3662 a83e 00d5 1bbf 5a9e e4be 8039 3f3e
00000060: a7c0 d5bd 784a 073e 9695 7f3e 87cb 70bd
00000070: 2dc1 c5be b08f 01be 9955 093f 968c 1e3f

block1.1.br3_bn1.weight f4 [2]
0.5704743 0.7357403
00000000: 9b0a 123f 7a59 3c3f

block1.1.br3_bn1.bias f4 [2]
0.19838063 -0.46678606
00000000: 4b24 4b3e 95fe eebe

block1.1.br3_bn1.running_mean f4 [2]
-3.1182876 1.0268774
00000000: 0692 47c0 b870 833f

block1.1.br3_bn1.running_var f4 [2]
1.091954 0.582533
00000000: 26c5 8b3f e220 153f

block1.1.br3_conv2.weight f4 [2, 2, 5, 5]
0.11469456 0.090160444 0.042643797 0.048282456 0.15585668 -0.035767116 -0.16253412 -0.003526086
0.044359658 -0.01789877 -0.11383878 -0.30856624 -0.46813 -0.031195512 -0.018593492 0.009200719
0.13112666 -0.22759703 0.03438916 -0.32115728 0.18253797 -0.069044285 0.05945317 0.06368462
0.031361572 -0.36966816 -0.30980918 -0.5282823 -0.5081241 -0.26424903 -0.14403358 -0.11818018
-0.32743856 -0.19815753 -0.1777563 0.15515158 0.38426247 0.60927045 0.5434892 0.15607628
-0.072412245 0.15363573 0.22784865 -0.031689286 -0.13626422 -0.22340842 0.01333221 -0.19468176
-0.26419497 -0.18254183 -0.3899462 -0.036472067 -0.44776085 -0.21515141 -0.29349732 0.018692309
-0.050375063 -0.108169764 -0.00626601 -0.3345739 -0.22737065 0.018109905 0.4199615 0.30725592
-0.32171202 0.020596193 0.52278185 0.46986493 0.5601033 -0.272173 -0.23136333 0.1765898
0.17389905 0.30169404 -0.21565053 0.28604853 0.13751999 0.1632451 0.11035133 0.22987652
0.00027947762 -0.054916244 0.08075533 -0.06482471 -0.031826463 0.05440549 -0.015216997 0.3042998
-0.17031187 -0.09337667 -0.11766174 -0.23468897 0.06793222 -0.17399997 -0.14298072 -0.16919325
-0.15793435 -0.2526021 -0.1678297 -0.06392979
00000000: fbe4 ea3d 0aa6 b83d 43ab 2e3d d3c3 453d
00000010: e598 1f3e 8a80 12bd 586f 26be e815 67bb
00000020: 79b2 353d 71a0 92bc 4e24 e9bd 65fc 9dbe
00000030: bcae efbe bb8d ffbc 6151 98bc 9dbe 163c
00000040: 1146 063e 320f 69be a6db 0c3d ba6e a4be
00000050: 3ceb 3a3e 1767 8dbd 2b85 733d 156d 823d
00000060: fe74 003d 2545 bdbe 4f9f 9ebe 823d 07bf
00000070: 6c14 02bf a64b 87be 8a7d 13be 7308 f2bd
00000080: 07a6 a7be cfe9 4abe bf05 36be 0ee0 1e3e
00000090: 0dbe c43e 26f9 1b3f 1c22 0b3f 76d2 1f3e
000000a0: df4c 94bd af52 1d3e 2851 693e a0cc 01bd
000000b0: d988 0bbe 2dc5 64be 576f 5a3c a85a 47be
000000c0: 9044 87be 3fec 3abe 07a7 c7be bc63 15bd
000000d0: e940 e5be a750 5cbe 4845 96be 9d20 993c
000000e0: 1556 4ebd 1c88 ddbd 1a53 cdbb 454d abbe
000000f0: dad3 68be 395b 943c 3205 d73e a650 9d3e
00000100: 70b7 a4be 59b9 a83c 08d5 053f 2392 f03e
00000110: ee62 0f3f 425a 8bbe 82ea 6cbe f5d3 343e
00000120: 9812 323e a477 9a3e 7ed3 5cbe f474 923e
00000130: 0ad2 0c3e b929 273e e1ff e13d c064 6b3e
00000140: da86 9239 dbef 60bd 0d63 a53d d1c2 84bd
00000150: 775c 02bd 4bd8 5e3d b650 79bc 2fcd 9b3e
00000160: 3c66 2ebe 443c bfbd a3f8 f0bd 4e52 70be
00000170: 0c20 8b3d 0c2d 32be 8a69 12be ff40 2dbe
00000180: 8bb9 21be 1055 81be 8ddb 2bbe 9fed 82bd

block1.1.br3_bn2.weight f4 [2]
0.47804737 0.45532373
00000000: a0c2 f43e 3120 e93e

block1.1.br3_bn2.bias f4 [2]
0.26733437 0.4417408
00000000: 0de0 883e da2b e23e

block1.1.br3_bn2.running_mean f4 [2]
-0.4286392 0.04061022
00000000: 9976 dbbe e756 263d

block1.1.br3_bn2.running_var f4 [2]
0.3813612 0.44575983
00000000: c641 c33e a23a e43e

block1.1.br4_conv.weight f4 [2, 16, 1, 1]
0.5630121 0.010158104 -0.0038046986 -0.12887631 0.47209874 0.040756308 0.60083723 0.23782477
0.01923262 0.16211666 0.068165794 0.72497606 0.29665813 0.09781217 -0.01693366 0.19665805
-0.24655974 -0.0353187 0.026465733 -0.37217644 -0.052002825 -0.33549702 -0.0067915143 0.083581336
0.045188725 0.12508619 0.13591036 -0.4706285 0.045391534 0.19226398 0.28607547 0.5076934
00000000: 9021 103f 2d6e 263c 4058 79bb 27f8 03be
00000010: edb6 f13e 16f0 263d 78d0 193f 5688 733e
00000020: ba8d 9d3c e901 263e 829a 8b3d 0898 393f
00000030: 93e3 973e bf51 c83d 75b8 8abc ba60 493e
00000040: 287a 7cbe 57aa 10bd aace d83c e98d bebe
00000050: ea00 55bd 44c6 abbe 5a8b debb b12c ab3d
00000060: d017 393d 9816 003e 162c 0b3e 38f6 f0be
00000070: 79ec 393d d9e0 443e 7c78 923e 32f8 013f

block1.1.br4_bn.weight f4 [2]
0.4147654 -0.41283765
00000000: 215c d43e 755f d3be

block1.1.br4_bn.bias f4 [2]
0.8059531 0.76761
00000000: f152 4e3f 1782 443f

block1.1.br4_bn.running_mean f4 [2]
4.2462125 -0.68426317
00000000: f9e0 8740 df2b 2fbf

block1.1.br4_bn.running_var f4 [2]
0.5557835 0.58860517
00000000: d447 0e3f d4ae 163f

block1.2.br1_conv.weight f4 [4, 16, 1, 1]
0.49196452 -0.48424342 0.13127786 1.2263551 0.29259863 -0.0021438424 0.42609856 0.45841786
0.026819034 0.8778487 -0.12970018 -0.14409603 0.18872668 -0.13537075 -0.15857881 -0.53696823
-2.1129148 0.20788002 0.16062155 -0.6927952 0.22651951 -0.1057668 -0.32188025 0.112998545
-0.0064625624 0.3723241 -0.09368743 -0.31036288 -0.07780311 -0.6188909 -0.53919035 -0.23302695
-0.41901392 -0.0874231 1.1383352 1.0645659 -0.3749219 0.18828917 -0.34261173 0.4958791
0.0005757884 -0.18417104 0.14174527 1.4861159 0.3887883 0.15251258 -0.3493949 0.31386587
0.8487422 1.4223547 1.1947402 -0.7103614 -0.059569404 -0.5265381 0.55410576 0.055541083
0.0065915072 0.4928474 -0.17286602 -0.08807676 -0.65575254 0.1243256 -0.46726656 -0.1025478
00000000: c6e2 fb3e c1ee f7be b46d 063e 34f9 9c3f
00000010: 7dcf 953e b57f 0cbb 9729 da3e bfb5 ea3e
00000020: 97b3 db3c b1ba 603f 20d0 04be e98d 13be
00000030: 9141 413e a19e 0abe 7c62 22be c076 09bf
00000040: ff39 07c0 80de 543e fa79 243e 075b 31bf
00000050: bbf4 673e 449c d8bd 7dcd a4be c86b e73d
00000060: e7c3 d3bb 44a1 be3e 32df bfbd e2e7 9ebe
00000070: 3d57 9fbd a26f 1ebf 6108 0abf 9e9e 6ebe
00000080: fe88 d6be e20a b3bd f8b4 913f b243 883f
00000090: c3f5 bfbe e0ce 403e ce6a afbe dee3 fd3e
000000a0: 81f0 163a 5597 3cbe ac25 113e 0c39 be3f
000000b0: 430f c73e 422c 1c3e e3e3 b2be 07b3 a03e
000000c0: 2b47 593f b80f b63f 3fed 983f 3fda 35bf
000000d0: 0cff 73bd 33cb 06bf e0d9 0d3f 0c7f 633d
000000e0: 92fd d73b 7f56 fc3e ca03 31be 9761 b4bd
000000f0: 66df 27bf 6c9e fe3d 903d efbe 9504 d2bd

block1.2.br1_bn.weight f4 [4]
0.6777755 0.72054523 0.7848574 0.7046801
00000000: b282 2d3f a775 383f 6aec 483f ea65 343f

block1.2.br1_bn.bias f4 [4]
1.3988752 1.5686288 1.5725763 1.7325221
00000000: 580e b33f d4c8 c83f 2e4a c93f 49c3 dd3f

block1.2.br1_bn.running_mean f4 [4]
2.9358613 -6.163328 2.4155054 4.8236117
00000000: 27e5 3b40 fc39 c5c0 a497 1a40 075b 9a40

block1.2.br1_bn.running_var f4 [4]
1.8825175 2.639994 5.254451 2.914986
00000000: 55f6 f03f a9f5 2840 7624 a840 218f 3a40

block1.2.br2_conv1.weight f4 [8, 16, 1, 1]
-0.36557785 0.6475627 0.14545548 0.9015865 0.4503754 -0.08862544 0.77442175 -0.022417752
-0.031378403 0.35673866 -0.08085835 -0.48150826 -0.21673901 -0.1657626 -0.2804619 -0.013951041
0.505186 -0.6623818 -0.32267267 -0.47289476 0.3328931 0.24238667 0.414432 0.14700669
0.006899157 -0.029749263 -0.45278037 0.045482866 -0.08413135 0.32303503 -0.042549945 -0.22517253
-0.37529254 0.5571746 0.30881837 0.021456344 0.24896924 -0.098670654 -0.58569205 -0.25437468
0.07250315 0.41137588 0.32608745 -0.5992041 0.02755761 0.38847145 -0.1068466 -0.5527808
0.12859875 1.7819072 -0.83741385 0.1454901 -0.27145126 0.54507035 -0.09500145 0.39049467
0.025937062 -0.34431568 0.3920099 0.10438968 -0.0877452 -0.24829723 0.1704162 -0.2722326
0.7563955 0.15243426 0.096116886 -0.13142546 0.024342692 -0.12325886 0.5745564 -0.19640283
-0.024785355 -0.061518833 -0.35935307 -0.03502066 0.16519472 -0.70150816 0.48161858 0.2115395
-0.008216348 -0.055037856 0.07178087 -0.018785363 0.01501628 -0.01738626 -0.015857114 -0.028958553
0.014563938 0.013289226 0.10163126 0.033442233 0.034076735 -0.041686077 0.07180909 0.07411928
0.18501964 0.47064978 0.17887373 0.69259655 0.2718205 0.18478979 -0.69670236 -0.49735597
0.005366395 0.45688653 0.025190057 0.06432932 -0.18647256 -0.17142701 -0.40719113 -0.43455172
0.08865529 -0.037468027 0.015987433 -0.0062658675 -0.013590511 0.035686146 0.0034805806 -0.04238031
-0.014048408 0.012322427 -0.008659535 -0.013486668 -0.06342966 -0.014962867 -0.06483271 -0.10688495
00000000: 052d bbbe abc6 253f 48f2 143e 5fce 663f
00000010: 9b97 e63e 4181 b5bd 8140 463f 6fa5 b7bc
00000020: a486 00bd 73a6 b63e 1099 a5bd 4088 f6be
00000030: d5f0 5dbe acbd 29be b498 8fbe e892 64bc
00000040: df53 013f db91 29bf 5a35 a5be 431f f2be
00000050: f770 aa3e 3634 783e 6e30 d43e ec88 163e
00000060: 5312 e23b bab4 f3bc d4d2 e7be 3e4c 3a3d
00000070: 0f4d acbd d964 a53e da48 2ebd a193 66be
00000080: 5826 c0be ffa2 0e3f 711d 9e3e 37c5 af3c
00000090: cbf1 7e3e d713 cabd eaef 15bf 663d 82be
000000a0: 887c 943d dc9f d23e eff4 a63e 7165 19bf
000000b0: 7fc0 e13c bbe5 c63e 64d2 dabd 0b83 0dbf
000000c0: 64af 033e 8915 e43f c160 56bf 5bfb 143e
000000d0: a9fb 8abe bb89 0b3f 1f90 c2bd ebee c73e
000000e0: f679 d43c 254a b0be 86b5 c83e 42ca d53d
000000f0: c1b3 b3bd a141 7ebe 9681 2e3e 1262 8bbe
00000100: 23a3 413f ba17 1c3e eed8 c43d 6594 06be
00000110: 536a c73c 246f fcbd 2116 133f d31d 49be
00000120: a80a cbbc 2cfb 7bbd 20fd b7be d371 0fbd
00000130: ce28 293e 0a96 33bf b696 f63e d09d 583e
00000140: dc9d 06bc 606f 61bd d901 933d c3e3 99bc
00000150: d806 763c a16d 8ebc c7e6 81bc 7d3a edbc
00000160: 959d 6e3c 0ebb 593c 0d24 d03d b9fa 083d
00000170: 0c94 0b3d 05bf 2abd a510 933d d9cb 973d
00000180: ca75 3d3e 02f9 f03e ad2a 373e 024e 313f
00000190: 0e2c 8b3e 8939 3d3e 165b 32bf 71a5 febe
000001a0: 96d8 af3b 08ed e93e 615b ce3c 17bf 833d
000001b0: aaf2 3ebe 908a 2fbe 5b7b d0be 907d debe
000001c0: e890 b53d 1378 19bd 14f8 823c e851 cdbb
000001d0: bcaa 5ebc a32b 123d 741a 643b fa96 2dbd
000001e0: 4b2b 66bc 01e4 493c b9e0 0dbc 2ff7 5cbc
000001f0: 69e7 81bd d026 75bc 03c7 84bd 7fe6 dabd

block1.2.br2_bn1.weight f4 [8]
0.6539057 1.2068658 0.65350884 0.7857921 0.44452685 0.021190405 0.78698164 -0.016158646
00000000: 5d66 273f 947a 9a3f 5b4c 273f ac29 493f
00000010: 0699 e33e 8097 ad3c a177 493f 235f 84bc

block1.2.br2_bn1.bias f4 [8]
0.8676921 -0.38550106 0.35118034 1.3397069 0.418906 -0.087263465 0.055093687 -0.07421561
00000000: 1221 5e3f 6560 c5be e9cd b33e 847b ab3f
00000010: d97a d63e 30b7 b2bd eba9 613d 5bfe 97bd

block1.2.br2_bn1.running_mean f4 [8]
2.5056572 -0.94161826 -0.258932 3.1101828 2.3809197 0.068785526 1.4928447 -0.05229911
00000000: b05c 2040 e50d 71bf bc92 84be 3c0d 4740
00000010: fd60 1840 6ddf 8c3d 8915 bf3f 9737 56bd

block1.2.br2_bn1.running_var f4 [8]
2.1639643 2.4064972 0.7950788 2.613534 0.6148317 0.006723547 1.1667618 0.0248112
00000000: 647e 0a40 0d04 1a40 498a 4b3f 2444 2740
00000010: 9c65 1d3f 3351 dc3b 7358 953f dc40 cb3c

block1.2.br2_conv2.weight f4 [8, 8, 3, 3]
0.1755574 -0.18380213 0.21518233 0.1159246 0.0072537623 0.2541734 0.09590311 0.24728616
0.35165703 -0.16001779 0.055311505 -0.2075051 -0.049999844 0.18338807 -0.16391769 0.10821399
0.06334279 -0.103684135 0.04877854 0.03083963 -0.13340077 -0.045875084 0.41516864 -0.1844662
-0.036394164 0.23475318 0.16911463 -0.11378279 0.14600441 0.02939763 0.32240087 0.5256195
-0.38364834 0.045123927 -0.043680552 -0.23968774 -0.090125844 -0.020378355 0.28894168 -0.23851784
-0.2475733 0.11611642 0.12876716 -0.009460625 0.107644916 0.014311213 -0.027577706 -0.021995993
-0.0069478494 0.03022517 0.018678559 0.013905736 0.03476469 0.030937884 -0.1765754 -0.17073299
0.07096102 0.19617677 0.46429026 -0.07696485 -0.09892522 0.03710161 -0.16915953 0.05307823
0.0038082972 -0.01943732 0.02377604 0.019140521 0.011357327 0.044617105 0.00015239237 0.0068364097
0.020819627 -0.033895172 0.00461911 0.011562879 0.026234254 -0.012989898 0.032212924 0.0130949905
-0.011275622 0.060886 -0.024904683 0.07466406 0.015061557 -0.02953068 0.031949345 0.0306515
0.027700093 0.10676331 0.02505457 -0.06485793 -0.048269812 -0.003069706 -0.0024181027 -0.010094556
0.030851217 -0.02499938 -0.039684456 0.012532123 -0.03862401 0.03632787 -0.058031477 -0.018680837
-0.028737826 -0.014067047 -0.042774897 -0.039124697 0.01543643 0.022340965 0.05412801 0.0020555062
0.017986646 0.02306884 0.0074185184 -0.0058768415 -0.041177906 0.007472373 -0.021100363 0.023292493
0.049761087 0.052512527 0.05681949 0.02356939 -0.001529975 0.011404402 -0.049802497 -0.0084485775
-0.04116848 0.027728258 6.473271e-05 -0.056370486 -0.011563626 -0.0517654 -0.038554616 0.011665702
0.025819905 0.02211991 -0.047976483 0.020203998 -0.032577146 0.039625924 -0.029062992 -0.019438304
-0.21045734 -0.16063577 0.12126877 -0.03345306 0.5545283 0.15754351 -0.002910368 0.47385055
-0.025359934 -0.08351126 0.12627774 0.23918138 0.12498841 -0.50103337 0.2677775 -0.087128
-0.23711553 0.04552001 0.22794132 -0.040750634 -0.20034745 0.23804112 0.6052826 -0.5152688
0.06963463 0.06509832 -0.3884021 0.037164968 -0.24652454 -0.1568503 -0.21475063 -0.41616732
-0.4586597 -0.13682804 -0.27026573 -0.019288879 0.12981291 0.063226774 -0.0035509737 -0.19340341
-0.89523065 0.13322516 -0.42961022 -0.2520373 0.09975904 0.029248219 0.0009782903 0.022820445
0.021977102 -0.0005032599 0.029402357 0.025840295 0.0028618309 0.00713341 0.023037167 0.053130835
0.10802661 0.3873546 0.7609384 -0.54352784 0.1794147 0.18060398 -0.24929363 -0.018969305
0.008187721 -0.010211959 -0.007689147 0.016551105 -0.025639702 -0.00015561792 -0.009212664 -0.013342792
0.124154404 0.041323278 -0.23188533 -0.018508615 0.19615135 -0.05291341 0.14883152 0.08384415
0.01781676 -0.21011604 -0.12700087 0.10068762 0.06381596 -0.48333433 -0.11958419 0.05443343
-0.076560974 0.24274045 0.066580884 -0.07340087 -0.22807927 -0.16334312 -0.1278987 0.033098888
-0.05345813 -0.050778512 -0.025755504 0.42882517 0.25758785 0.009892542 -0.20798038 -0.35689443
-0.16733931 -0.12876172 -0.4203505 -0.22791374 -0.04309238 0.0064553316 0.21759726 -0.025659977
00000000: 52c5 333e a036 3cbe c258 5c3e e069 ed3d
00000010: f8b0 ed3b 0423 823e da68 c43d 9538 7d3e
00000020: 640c b43e b4db 23be 518e 623d 387c 54be
00000030: a3cc 4cbd 15ca 3b3e 0ada 27be 4c9f dd3d
00000040: ddb9 813d 5958 d4bd 02cc 473d 64a3 fc3c
00000050: 369a 08be 83e7 3bbd fc90 d43e b5e4 3cbe
00000060: 0c12 15bd 2363 703e 632c 2d3e f406 e9bd
00000070: 2e82 153e 4cd3 f03c ba11 a53e 008f 063f
00000080: 8e6d c4be ded3 383d 61ea 32bd b470 75be
00000090: e693 b8bd 82f0 a6bc 2af0 933e 053e 74be
000000a0: db83 7dbe 72ce ed3d 8adb 033e bd00 1bbc
000000b0: f074 dc3d 9479 6a3c a4ea e1bc f130 b4bc
000000c0: c9aa e3bb c79a f73c c703 993c e2d4 633c
000000d0: 6b65 0e3d 7271 fd3c 2fd0 34be a1d4 2ebe
000000e0: 0354 913d 90e2 483e 74b7 ed3e bf9f 9dbd
000000f0: 4e99 cabd dcf7 173d 2838 2dbe 8f68 593d
00000100: a094 793b 043b 9fbc f8c5 c23c 95cc 9c3c
00000110: 1514 3a3c 6dc0 363d 84cb 1f39 f603 e03b
00000120: ec8d aa3c aad5 0abd e75b 973b 3b72 3d3c
00000130: 38e9 d63c 95d3 54bc b3f1 033d 5f8c 563c
00000140: 63bd 38bc 9963 793d e804 ccbc 78e9 983d
00000150: c0c4 763c 53ea f1bc 51dd 023d db18 fb3c
00000160: 4eeb e23c b9a6 da3d 3e3f cd3c 3cd4 84bd
00000170: 91b6 45bd 1f2d 49bb 0879 1ebb a363 25bc
00000180: b1bb fc3c 80cb ccbc 2b8c 22bd 8953 4d3c
00000190: 3634 1ebd 88cc 143d 6ab2 6dbd 8e08 99bc
000001a0: 976b ebbc 7979 66bc bb34 2fbd 3841 20bd
000001b0: 15e9 7c3c 6604 b73c 55b5 5d3d acb5 063b
000001c0: bb58 933c ddfa bc3c 0b17 f33b 8592 c0bb
000001d0: 2aaa 28bd cfda f43b abda acbc e6cf be3c
000001e0: 48d2 4b3d 6017 573d 8ebb 683d 9814 c13c
000001f0: 7189 c8ba 87d9 3a3c b4fd 4bbd e76b 0abc
00000200: 48a0 28bd 5f26 e33c 1cc1 8738 bde4 66bd
00000210: 5d75 3dbc f507 54bd 72eb 1dbd 8021 3f3c
00000220: 4484 d33c d034 b53c fd82 44bd db82 a53c
00000230: 9d6f 05bd cb4e 223d 8315 eebc 143d 9fbc
00000240: 2182 57be b47d 24be c35b f83d 1306 09bd
00000250: 91f5 0d3f 1653 213e dfbb 3ebb 8a9c f23e
00000260: a3bf cfbc f407 abbd f44e 013e f7eb 743e
00000270: ecf9 ff3d b943 00bf 221a 893e 2a70 b2bd
00000280: 6ace 72be 3173 3a3d 7369 693e 23ea 26bd
00000290: e227 4dbe 0dc1 733e cdf3 1a3f a8e8 03bf
000002a0: 9a9c 8e3d 4552 853d a4dc c6be 4b3a 183d
000002b0: ee70 7cbe 5d9d 20be 97e7 5bbe e213 d5be
000002c0: 72d5 eabe a61c 0cbe 4560 8abe b603 9ebc
000002d0: aded 043e 0a7d 813d 74b7 68bb 8b0b 46be
000002e0: d62d 65bf 2d6c 083e dff5 dbbe 080b 81be
000002f0: 784e cc3d f699 ef3c fa39 803a f1f1 ba3c
00000300: 5309 b43c 33ed 03ba 36dd f03c 07af d33c
00000310: 8e8d 3b3b 61bf e93b 71b8 bc3c b89f 593d
00000320: 0e3d dd3d 5853 c63e dccc 423f a424 0bbf
00000330: 7db8 373e 40f0 383e d446 7fbe 8465 9bbc
00000340: ca25 063c 0f50 27bc 3df5 fbbb 2f96 873c
00000350: 5a0a d2bc 5e2d 23b9 b7f0 16bc ba9b 5abc
00000360: aa44 fe3d 9942 293d 5973 6dbe 619f 97bc
00000370: e6db 483e bbbb 58bd 4a67 183e 7bb6 ab3d
00000380: 74f4 913c a928 57be 840c 02be 5035 ce3d
00000390: f1b1 823d 9977 f7be 8ee8 f4bd 97f5 5e3d
000003a0: 00cc 9cbd f490 783e 8f5b 883d 3253 96bd
000003b0: 9d8d 69be 6b43 27be e0f7 02be b392 073d
000003c0: eaf6 5abd 21fd 4fbd 35fd d2bc f98e db3e
000003d0: 8ee2 833e 5414 223c cff8 54be deba b6be
000003e0: ff5a 2bbe 1dda 03be 2e38 d7be 3862 69be
000003f0: a381 30bd 3f87 d33b d1d1 5e3e df34 d2bc

block1.2.br2_bn2.weight f4 [8]
0.7432802 -0.0077342936 0.7151096 0.486797 0.7281892 0.7663884 0.6386633 0.7805002
00000000: 9c47 3e3f f56f fdbb 6c11 373f 753d f93e
00000010: 9b6a 3a3f 0832 443f 707f 233f dcce 473f

block1.2.br2_bn2.bias f4 [8]
-0.5312811 -0.05060099 0.2807855 0.014039205 -0.10708905 0.09622899 1.0956949 1.0904121
00000000: 0a02 08bf fc42 4fbd 1ec3 8f3e b204 663c
00000010: 8151 dbbd b413 c53d bb3f 8c3f a092 8b3f

block1.2.br2_bn2.running_mean f4 [8]
1.6680619 -0.22546963 -1.8879263 -0.87189865 -0.6269607 -0.2710866 1.1271455 3.9155667
00000000: 0d83 d53f 83e1 66be 92a7 f1bf c034 5fbf
00000010: 7f80 20bf ddcb 8abe 4e46 903f a598 7a40

block1.2.br2_bn2.running_var f4 [8]
1.3399643 0.06453599 2.2299812 0.74355954 1.4037203 1.8128693 2.7769568 6.4394455
00000000: f383 ab3f 722b 843d 03b8 0e40 eb59 3e3f
00000010: 1bad b33f 1a0c e83f a9b9 3140 f00f ce40

block1.2.br3_conv1.weight f4 [2, 16, 1, 1]
0.008794637 0.05441155 -0.15544999 -0.011254235 -0.018962558 -0.005760624 -0.020488488 -0.03905314
-0.013343197 -0.042701505 0.0027409974 0.02601437 -0.0015818976 -0.04289365 -0.037219666 -0.03371045
0.42884326 -0.15635492 -0.10251201 -0.19707793 0.1594605 0.13498794 0.060352877 -0.31056923
-0.019071449 0.27547655 -0.012133589 -0.45640084 0.034150075 -0.062203772 -0.19742683 0.33074847
00000000: 6217 103c a5de 5e3d 482e 1fbe af63 38bc
00000010: 5e57 9bbc 9ec3 bcbb 79d7 a7bc 2ff6 1fbd
00000020: 6d9d 5abc c6e7 2ebd 4ea2 333b 171c d53c
00000030: ad57 cfba 40b1 2fbd a673 18bd f813 0abd
00000040: 5891 db3e 811b 20be d1f1 d1bd ccce 49be
00000050: 9d49 233e 473a 0a3e 9434 773d ee02 9fbe
00000060: ba3b 9cbc 430b 8d3e f6cb 46bc 5fad e9be
00000070: f3e0 0b3d 62c9 7ebd 422a 4abe dd57 a93e

block1.2.br3_bn1.weight f4 [2]
0.0031139771 0.50209147
00000000: de13 4c3b 1189 003f

block1.2.br3_bn1.bias f4 [2]
-0.023947023 -0.039945513
00000000: 8c2c c4bc e89d 23bd

block1.2.br3_bn1.running_mean f4 [2]
-0.1560018 0.27788532
00000000: f0be 1fbe fc46 8e3e

block1.2.br3_bn1.running_var f4 [2]
0.017604379 0.61755866
00000000: 0f37 903c 5318 1e3f
