assignment2/resBottleneck_best.pt (torch, 561872 bytes, 242 tensors)

block1.0.conv1.weight f4 [8, 16, 1, 1]
000000 f6 6a 82 3d b1 7a 37 bf f4 ff 53 bf f0 cb 4d bb
       0.063680574 -0.7167159 -0.8281243 -0.0031402074
000010 81 45 b3 be 3d 4a 97 3e bb 6e 9c be 25 9c b4 bd
       -0.35013965 0.29548827 -0.3055323 -0.08818845
000020 12 8f c5 bc 31 4d f9 39 74 1f 02 be af 15 db 3c
       -0.024116073 0.00047550493 -0.12707311 0.026743738
000030 a6 2e 22 bf a1 33 9a be ca 69 11 3f f1 4f 37 3d
       -0.6335243 -0.30117515 0.56802046 0.044753972
000040 57 dc 76 3d 26 5b 0a be ee d9 f1 be 37 dd 63 be
       0.060268726 -0.13511333 -0.4723658 -0.22252356
000050 86 be 5b bf 07 96 45 be 46 76 02 3d d9 f7 50 3d
       -0.8583759 -0.19295512 0.031851076 0.051017616
000060 10 09 90 bd 83 57 f8 3e b7 29 0f bc 7d 6b 5b 3c
       -0.070329785 0.48504266 -0.008737973 0.013392326
000070 49 8b 81 bf f2 19 1e bc c1 78 89 3f 15 5d 9f 3c
       -1.0120631 -0.0096497405 1.0739976 0.019453565
000080 02 81 02 bd cb de 8e bd 07 5d d5 3b 8b 7d 2e bd
       -0.031861313 -0.06976088 0.006511334 -0.042600196
000090 e9 0b e8 bc e1 38 41 bd 75 77 85 bd cf 31 e9 3d
       -0.028325992 -0.047173385 -0.06516925 0.11386453
0000a0 96 74 89 bd 3b d5 ed 3c 28 f7 7c bc e8 4d 51 bd
       -0.0671169 0.02903234 -0.015439786 -0.051099688
0000b0 af 88 f2 bc c0 83 04 3d 3f 2a 33 3d d4 49 93 bb
       -0.029606191 0.03235221 0.04374146 -0.004494885
0000c0 a3 75 33 bd c4 17 93 3d 35 22 89 bc a4 4d 4f 3d
       -0.04381336 0.07182267 -0.016739944 0.050611153
0000d0 d7 5c 69 3d a5 1e 07 3c 62 73 b8 3c 75 65 54 bd
       0.056973305 0.008247052 0.022515956 -0.05185457
0000e0 45 a5 10 3b 1d 2d 9c bd b0 a2 a8 3c 9a f1 c9 bc
       0.0022071165 -0.07625792 0.020585388 -0.024651337
0000f0 1c d1 4d 3d 57 98 85 bd 6e 0a 1d ba eb c4 65 bc
       0.05024825 -0.06523197 -0.0005990629 -0.014024
000100 51 e9 49 bd 63 c1 07 3f 40 a0 b8 bc 31 d9 fb 3e
       -0.049294773 0.5302946 -0.02253735 0.4918914
000110 f1 90 ba 3e 92 e9 ea bd 56 dd d4 3c d7 c4 79 3e
       0.36438707 -0.11470331 0.025984447 0.24391495
000120 a1 2c ad bc 66 24 8a be 07 3a d9 3e 29 1e 11 bd
       -0.021139445 -0.26980895 0.42427084 -0.035429154
000130 66 fe d5 3e f8 b3 fa bc 19 3b 66 3e a7 be 6b 3e
       0.41795653 -0.030603394 0.22483481 0.23021947
000140 47 08 d0 bc 9e 80 c7 ba 9d cf 70 3c fc cf 09 3d
       -0.025394572 -0.0015220826 0.014697936 0.033645615
000150 13 18 bc 3c 76 f8 33 3d 34 6e 8d 3d cd 4d c5 bc
       0.022960698 0.043938123 0.06905785 -0.02408495
000160 59 ef 28 3d 8a 2b 48 bd e7 5a 3c 3d 4f 11 d6 bc
       0.041243885 -0.048869647 0.04598513 -0.0261313
000170 cc a0 f7 3c ff ed 9c 3d 6b 07 8a bd 7f 3a a8 bd
       0.030228041 0.07662582 -0.06739696 -0.08214282
000180 ce 60 e5 3c 3b 56 8a 3e 6b 21 36 3f 06 6f 86 3d
       0.028000262 0.27018914 0.7114474 0.06564145
000190 17 ed 58 bf 75 19 69 3e 5b 8c c6 be 4a 12 5d 3c
       -0.8473677 0.22763617 -0.38778958 0.01349313
0001a0 92 74 fa bd 32 1c c6 be 69 a1 51 be 16 d2 8f 3d
       -0.12229265 -0.38693386 -0.2047173 0.070224926
0001b0 57 59 4e 3e 23 0c 60 be 27 8a 81 3e 47 a7 53 be
       0.20151268 -0.2187963 0.25300714 -0.2066928
0001c0 79 4b 47 3d d2 fd 0d 3c 4d 3d 83 bf 0c 38 84 3c
       0.04865596 0.0086664725 -1.0253083 0.016140006
0001d0 6a fe ab be ae b0 44 bf b0 94 3a bf 29 3a 40 3e
       -0.3359254 -0.7683209 -0.7288313 0.18772186
0001e0 ab b1 f0 bd aa a3 08 3c 4d 42 ef bd 4e 7a 88 3a
       -0.117526375 0.008339802 -0.11682568 0.0010412426
0001f0 2c 75 89 3d 5e de ed be 2b f2 b0 bb ed d9 c9 bb
       0.06711802 -0.46458715 -0.0053999624 -0.006160012

block1.0.bn1.weight f4 [8]
000000 2e c8 1d 3f 0b a3 36 3f 3a a5 c5 3c f1 33 a8 3b
       0.61633575 0.71342534 0.024126638 0.005133145
000010 07 9a 32 3f e0 a4 1e 3b 1b f1 f0 3e 2d 8f a6 3f
       0.6976628 0.002420716 0.4705895 1.3012444

block1.0.bn1.bias f4 [8]
000000 36 c6 1d bc 31 1c 1d 3f 6e 74 a1 bd 56 af bf bc
       -0.009629777 0.6137114 -0.07883535 -0.023399036
000010 42 22 03 3e 14 a6 a7 bc 65 5f e3 3e c4 62 2e bf
       0.12806037 -0.020464934 0.44408718 -0.68119454

block1.0.bn1.running_mean f4 [8]
000000 20 e8 6f c0 36 33 c6 bf 90 f4 bd be 5c 8a 04 3d
       -3.7485428 -1.5484378 -0.3710065 0.032358512
000010 37 bd 28 40 7d 23 38 3e 82 ea ad bf 5c 0e b4 c0
       2.6365488 0.17982288 -1.3587191 -5.626753

block1.0.bn1.running_var f4 [8]
000000 17 90 a1 40 13 84 dc 40 2f 4d 57 3d 00 dc 44 3d
       5.048839 6.8911223 0.052563842 0.04806137
000010 67 a5 23 40 f8 38 dc 3d c5 8f 90 40 5c 1e 36 41
       2.5569704 0.107530534 4.51755 11.382412

block1.0.conv2.weight f4 [8, 8, 3, 3]
000000 7b 9b 46 be 4a 0d 98 3e b5 53 7a 3d 7c 36 26 be
       -0.19395249 0.2969764 0.061114985 -0.16231722
000010 89 41 14 3f 58 66 78 3e 9f 8d e7 bd 48 7c dd 3d
       0.579125 0.24257791 -0.11306309 0.108147204
000020 6a c9 a8 bc 93 c0 bd bc 34 2f 06 3f b0 e5 45 be
       -0.020603854 -0.023163116 0.52415776 -0.193259
000030 bc 32 08 be a2 e3 30 3f 7d 24 1b be 9c 6a 9c be
       -0.13300604 0.6909734 -0.15150638 -0.30550086
000040 34 49 0b be 22 bb 23 be 3b b7 21 3d ec e9 fa 3c
       -0.13602144 -0.15989354 0.039481383 0.03062912
000050 2b 92 52 3d e1 8a c5 3b b9 39 c7 bb 95 f1 cd 3c
       0.051408928 0.0060285185 -0.006079879 0.02513961
000060 3a f3 c8 bb 2a 8a 6e bb fc 16 9d 3c 8d 11 e8 bc
       -0.0061325105 -0.003639827 0.019175999 -0.028328681
000070 5e 68 0e 3a 5a c1 b1 bc ec ab 43 bc 8d a5 bb bc
       0.0005432422 -0.021698643 -0.011942845 -0.02290609
000080 48 9f 9a bc 2b 07 a4 bc 06 e0 29 bc 38 78 0d bd
       -0.01887478 -0.02002295 -0.010368353 -0.034538478
000090 8a 6d 6e be ff da c9 bd 83 ac 91 3d aa 36 53 bd
       -0.23283973 -0.09856223 0.07112982 -0.051565804
0000a0 37 b8 ae bd 01 52 78 bd c9 f2 51 bc 14 86 3e bc
       -0.0853123 -0.06062508 -0.012814232 -0.011628646
0000b0 89 3c b1 be aa b8 7c 3c 1e 9c 22 bd 68 1f 92 bb
       -0.34616497 0.015424887 -0.039699666 -0.0044593103
0000c0 0e 28 af 3c 4c c2 cc 3c 0b fe b8 3b 69 fc f1 3c
       0.021381404 0.024994992 0.0056455187 0.029539304
0000d0 1c e6 58 3c 6f f0 df 3c dd 5b 7c be 77 c3 d8 3e
       0.013238456 0.027336327 -0.24644418 0.42336628
0000e0 10 3a 35 3d 41 83 1b bd 7c a2 be 3e 45 01 76 3d
       0.044244826 -0.03796697 0.3723334 0.060059804
0000f0 74 5f 88 bd 59 be a0 bc 5f 17 3a be ae ab ee 3d
       -0.06658831 -0.019622015 -0.18172978 0.11653839
000100 f2 d3 74 3e 9c 5b 6b 3d 76 0b a4 3e 38 bb 11 3f
       0.23908976 0.057460412 0.32039994 0.569263
000110 20 42 18 3e 13 55 8a 3e 65 24 36 3d 53 05 15 3e
       0.14868975 0.2701803 0.044468302 0.14552812
000120 12 14 43 bc 51 6e 9d 3c 09 16 f9 bc 53 17 2d 3d
       -0.011906641 0.019217642 -0.030406015 0.04225857
000130 23 06 94 3d ec 5a 1a bc 43 a1 2f 3d 41 d9 8c 3d
       0.07227733 -0.0094210915 0.0428784 0.068773754
000140 96 dc a6 bd 4e e5 d6 3b 92 f6 cf 3b 7d d5 26 3d
       -0.08147542 0.006558097 0.006346532 0.040730942
000150 10 77 e7 3c 2b 3f 86 3d b8 7f 8f 3d 9a 09 c2 3d
       0.028255016 0.06555017 0.07006782 0.094744876
000160 98 71 d8 3d 82 71 c2 3b 43 c4 4b 3d bd d6 7e 3a
       0.10568541 0.0059339413 0.049747717 0.00097213296
000170 16 fe b4 39 a4 3f 9b 3c 14 e6 0c 3d d3 63 a0 3c
       0.00034521584 0.018951245 0.034399107 0.01957885
000180 54 a9 12 3d 09 d9 81 3d 4f af d6 3c 39 66 81 3c
       0.035806015 0.06340224 0.02620664 0.015795814
000190 c0 7d 93 bc a8 fb 04 bc cc 54 02 bb 4b 6e 70 ba
       -0.018004298 -0.00811664 -0.0019886969 -0.00091717084
0001a0 df ba 41 bc 6d 1a 52 bc d7 ad eb bc 7a 42 c7 bc
       -0.011824339 -0.012823683 -0.028769417 -0.02432369
0001b0 b2 08 dd 39 89 44 a3 bc 71 65 cc bd 59 ca d7 38
       0.00042158883 -0.019930141 -0.09980286 0.00010289689
0001c0 97 df 51 3c 7d e7 28 3c 7a 95 24 3c 07 5a 52 bc
       0.012809656 0.010309097 0.010045404 -0.012838847
0001d0 f8 58 68 bd 29 62 17 3b b5 10 56 bc 32 f3 8b bd
       -0.056725472 0.002309928 -0.013065507 -0.06833495
0001e0 26 e2 81 3b df 97 e4 bc aa dc 9d bd 6e fc 2b bc
       0.0039637266 -0.027904449 -0.07708104 -0.010497196
0001f0 e5 5c 0b bd d0 8d 9c bd 71 b7 6e bc af f1 6e bc
       -0.034024138 -0.07644236 -0.014570103 -0.014583989
000200 8a a9 3f bd 27 b2 27 3c a3 81 6b bc 02 b0 e5 ba
       -0.046792544 0.010235346 -0.0143741695 -0.0017523768
000210 fc 85 b6 3c 92 3c 20 bd b8 94 a5 bd 24 98 0f bd
       0.022280686 -0.039120264 -0.080850065 -0.035057202
000220 21 9c d9 bc 0a 11 8d bc bc 05 38 bd 43 e3 b3 bc
       -0.026563706 -0.017220039 -0.044927344 -0.021958953
000230 ca b3 2b bd 55 0a b6 3c ea 8a 0a 3d 86 ed 26 3d
       -0.041919507 0.022221724 0.033823885 0.040753864
000240 f4 38 4d 3e 3b dd 4d be 4a d2 30 be 8c 2e b9 3e
       0.20041257 -0.20103924 -0.17267719 0.36168325
000250 c1 10 20 3e b3 f2 6f 3c 9f a1 53 3e 7e 0c fd bc
       0.15631391 0.014645266 0.20667122 -0.030889746
000260 d7 e4 ed 3d 45 8b 3f be c2 79 e7 bd b5 e6 82 be
       0.11615913 -0.18705471 -0.1130252 -0.2556664
000270 f2 dd a6 bd ab 0a c1 3d f1 98 36 be f8 d9 b3 be
       -0.081478015 0.09425863 -0.1783178 -0.35127234
000280 7c 17 6f bd d9 f8 90 3e 6f d2 8e bd 46 0b a2 bc
       -0.058372006 0.28314856 -0.06973731 -0.019780766
000290 8e ab 61 bd d5 f3 2d bc e2 0c 32 bd 46 a7 37 bd
       -0.055095248 -0.010617216 -0.043469317 -0.04483726
0002a0 10 c4 ee bd 70 ef 2c be 41 a3 d5 bd 98 ed fc 3c
       -0.1165849 -0.16888213 -0.10431529 0.030875012
0002b0 1a 37 10 bc f7 57 dc 3c 1f 98 0e 3d ae 1d ea 3b
       -0.0088022 0.026897414 0.034813043 0.0071446514
0002c0 75 93 9f 3c 9e 2a af 3c 4c 59 5e bc 86 25 d7 3c
       0.019479493 0.021382626 -0.013571095 0.02626301
0002d0 59 d4 9d be 0e 29 93 3e a7 ff 3b 3b db 1c c6 3c
       -0.3082607 0.2874226 0.0028686316 0.024183681
0002e0 96 41 09 3f af c3 5a be 0e 6d 92 bd 50 08 95 3e
       0.536157 -0.2136371 -0.07149707 0.29107904
0002f0 9e 7c eb be 1e ed cc 3b 1c 85 1d 3d e0 91 c0 3c
       -0.45993513 0.0062538525 0.03845702 0.023507059
000300 b7 69 c0 bc 91 91 40 bc 66 b5 43 bd 20 f0 56 bc
       -0.023487909 -0.011753456 -0.047780417 -0.013118774
000310 b0 aa 5d 3b 95 27 7b 3b 60 c2 2d 3d d0 e5 49 be
       0.0033823662 0.0038323153 0.0424217 -0.19716573
000320 a9 ac 90 be e5 d7 05 3f de 9c cc 3e d5 06 f5 bd
       -0.2825673 0.52282554 0.3996343 -0.11964194
000330 96 b7 1d 3e 8f ad 38 3e bf da 74 bd 0a e6 49 3d
       0.15402064 0.18034957 -0.059778925 0.049291648
000340 5e b0 7f 3b f6 b2 a9 3b 08 ce 85 3e 6f d2 e6 3e
       0.0039015035 0.0051788045 0.26133752 0.45082423
000350 0a 51 28 3d 54 ba 33 be 9b 5e a4 3d 10 d9 d0 bc
       0.04109291 -0.17551547 0.08025857 -0.025494128
000360 57 2f 5e bc 5e 70 c9 bc 91 2f da bc 9f 67 8d bc
       -0.013561091 -0.024589714 -0.02663401 -0.017261324
000370 a8 bf 7a 3c b3 19 cd bc 56 44 b5 bc d2 83 6d 3d
       0.0153044835 -0.025036668 -0.022127312 0.05798704
000380 d6 35 52 3d a5 af 64 bd df b2 cd bb aa cd 3a bd
       0.051320873 -0.05583157 -0.0062774266 -0.045606293
000390 7c 0a 07 bd 7a d8 a8 3b f3 2c ba 3c b1 be fd 3c
       -0.032968983 0.005152759 0.022726512 0.030974718
0003a0 38 82 d1 3c 44 0a b2 ba 27 1a a8 3c bd fa 7b bd
       0.025574788 -0.0013583382 0.020520283 -0.06151842
0003b0 47 dd a5 bc 16 7d ef bb 12 8f de 3c a2 04 b5 3c
       -0.020247115 -0.0073086126 0.02716783 0.022096936
0003c0 40 7e a7 3d 07 99 60 3d 08 7a cc 3d 19 2e 7f 3c
       0.08178377 0.05483344 0.09984213 0.015574955
0003d0 4b 62 a2 3c d9 29 46 3c 68 c4 12 bd 43 2f 9d ba
       0.01982226 0.012094938 -0.03583184 -0.0011992235
0003e0 c8 95 32 3b 6c cf 8c bd ab da 73 bc 1d 73 4d bd
       0.002724992 -0.068755 -0.0148836775 -0.05015861
0003f0 da 55 0f 3d c5 ad 6d 3b 3a 97 07 3d f0 db 34 3b
       0.034993984 0.0036266905 0.033103205 0.0027596913

block1.0.bn2.weight f4 [8]
000000 02 e2 37 3f 89 d9 ab 3a c4 23 4f 3f 7d 98 28 bc
       0.71829236 0.0013111095 0.8091395 -0.010290262
000010 b0 84 d5 3c 6b 10 0b 3f ed 9e 3b 3f 24 4c 0b 3c
       0.026064247 0.54321927 0.73289376 0.00850204

block1.0.bn2.bias f4 [8]
000000 a2 a3 d1 be c8 ac 97 bc 4a 9b f1 bd 73 e0 b0 bd
       -0.40945154 -0.018515006 -0.11797197 -0.0863656
000010 05 36 ce bd 68 e7 15 3f 05 79 30 3f 73 ae 73 bd
       -0.10068897 0.5855622 0.6893466 -0.05949254

block1.0.bn2.running_mean f4 [8]
000000 98 ca 05 3f 61 11 31 3e ec 54 b8 3d bb ba 86 3c
       0.5226226 0.17291786 0.090005726 0.016446462
000010 5d 25 82 3e 00 e7 3c 3f d6 0e 57 3f e3 3a dc be
       0.2541913 0.7378998 0.8400701 -0.43013677

block1.0.bn2.running_var f4 [8]
000000 12 70 33 3f 24 12 59 3d 6c 68 f0 3e e6 94 e2 3c
       0.7009288 0.052995816 0.46954668 0.027658891
000010 17 b3 f8 3c 63 c1 a3 3f 53 6a c5 3f 96 a6 20 3d
       0.030358834 1.2793392 1.5423073 0.03922137

block1.0.conv3.weight f4 [16, 8, 1, 1]
000000 41 95 3d 3f 19 15 a4 3d b5 48 c8 bc 88 5e bf bc
       0.7405587 0.080118366 -0.024448732 -0.023360506
000010 ae c4 60 bc 5e da 5d 3e 6b 77 1d 3c 12 cf 34 bb
       -0.013718767 0.21665332 0.009610991 -0.0027589244
000020 0d c7 8d 3e 48 69 8c bc 78 ea 8d 3d 2a c8 d0 bb
       0.27690926 -0.017140046 0.06929487 -0.0063715177
000030 67 48 ec bd 0f b3 4a be 62 94 14 3f 99 df 7f bd
       -0.11537247 -0.19794868 0.58038914 -0.0624691
000040 38 17 b8 be 99 38 f8 ba 22 6b 19 be 59 ef 9c ba
       -0.35955215 -0.0018937766 -0.14982274 -0.0011973187
000050 78 35 21 3d a4 ad 57 bf bc 35 9a be 0d 06 02 3c
       0.039357632 -0.8424933 -0.3011912 0.007936013
000060 77 84 6e bd 67 2d 50 bc 7c 16 1c 3e a4 b5 3b 3d
       -0.058231797 -0.012706137 0.15242952 0.045827523
000070 2c d9 75 3c d8 b3 16 be a7 62 07 3d f8 a1 59 3c
       0.015005391 -0.14717042 0.033053067 0.013283245
000080 17 12 88 bd c7 9a d8 3d 34 5b 84 3c e8 fb 2e bc
       -0.06644075 0.105763964 0.01615677 -0.010680176
000090 12 60 05 bd aa e5 f0 3e 58 cd 18 3f 7a c7 88 bb
       -0.032562323 0.4705022 0.5968833 -0.00417417
0000a0 f3 4d 26 3d 9f 04 4b bd ec 65 a4 be 2f 21 7f bd
       0.040601682 -0.049564954 -0.3210901 -0.062287506
0000b0 9b 6b 21 bd 42 43 67 bd db 09 84 3e 84 b7 15 bd
       -0.03940926 -0.056460626 0.2578877 -0.036551967
0000c0 32 82 30 be db 3d 82 3b 91 83 d2 3e c2 55 f2 3d
       -0.17237166 0.003974659 0.41116002 0.11832763
0000d0 72 f1 b9 3c fb e8 c8 3e a5 98 5c 3e 8f df f2 bc
       0.022698138 0.3924025 0.21542604 -0.029647617
0000e0 96 ed 5e 3e 26 67 f2 3c 2b b7 1b 3d 6e 62 ab bc
       0.2177032 0.0295902 0.03801648 -0.020920958
0000f0 f1 3c c2 bc 06 0f b2 3e 4f 7c 67 bf c2 a6 08 3d
       -0.0237107 0.34777087 -0.90424055 0.033362158
000100 87 46 83 3e 83 ca ec bc 3b 35 a3 be dd b9 81 bc
       0.25639746 -0.028905159 -0.3187655 -0.015835697
000110 bc 4b 38 3d 37 19 37 3e 7f a8 15 3e eb d3 79 bc
       0.0449941 0.17880712 0.14615057 -0.015248279
000120 8a 13 31 be c5 6b 05 bd 75 ee 57 3e c5 30 71 bc
       -0.1729261 -0.03257348 0.21087058 -0.0147211
000130 9e 4b d8 3c 62 69 0b 3e 66 c3 78 be 5a 12 02 3d
       0.026403245 0.13614419 -0.24293289 0.031755783
000140 d1 31 0e 3c cf dd 30 bd 48 59 f5 be 46 67 53 3d
       0.008678869 -0.043180283 -0.4791968 0.05161216
000150 55 28 fb bc c5 6b 09 3e ff e0 06 3d 7d f9 00 bd
       -0.03065888 0.13420017 0.032929417 -0.03148793
000160 d5 30 1d be be cb 84 bd a3 db 7f be 81 44 a2 bd
       -0.15350659 -0.06484173 -0.24986129 -0.07923222
000170 9d 7f e3 3c 5a 12 e1 be eb c4 c8 be 96 b9 0e 3d
       0.027770812 -0.43959314 -0.39212736 0.034844957
000180 ed cd 21 be e5 f2 09 bd 2a 34 8b 3d 87 d5 2d bc
       -0.1580121 -0.033678908 0.06797059 -0.010609991
000190 62 de 47 3d 3b ee b0 bd 16 86 0a bc 67 2c 32 3c
       0.048796065 -0.08639189 -0.00845482 0.010874844
0001a0 3a d2 bf bd a4 4c 53 bd 60 68 01 3f 29 95 91 3d
       -0.093662694 -0.051586762 0.5054989 0.07108528
0001b0 39 f7 ea bb 4b b8 28 be bc 55 85 be e7 e7 89 bb
       -0.0071705845 -0.16476552 -0.26041973 -0.004208553
0001c0 a8 b9 42 3d a6 73 82 3d c1 87 13 3f 90 fe b0 3d
       0.047540337 0.063697144 0.5762902 0.08642304
0001d0 e1 80 6a bc ca d5 61 3c 4a a8 0e 3f 1c 6d 98 bd
       -0.014312954 0.013783881 0.5572554 -0.07442686
0001e0 8d 7b 24 be f7 f2 89 3d ec d2 9c be c3 ac c3 bc
       -0.16062756 0.06735795 -0.3062967 -0.02388609
0001f0 ff ff de 3b fd d5 a9 3e 25 9b 66 3d 54 44 29 bd
       0.0068054195 0.33171073 0.0563003 -0.04132493

block1.0.bn3.weight f4 [16]
000000 b1 5c 4f 3f 0a 45 87 3e 07 5b 31 3f 26 66 54 bc
       0.8100081 0.2641986 0.6927952 -0.012963807
000010 c3 11 25 3f 59 05 85 3d 89 ef 9b be 1e a1 80 3f
       0.6448023 0.064951606 -0.30456188 1.0049169
000020 ea a9 42 bc c1 ce 28 3d 30 85 b5 be 82 2b 2f 3f
       -0.011881331 0.0412128 -0.35453176 0.6842576
000030 85 6a b2 bd 32 d6 9d be c7 32 d1 be d1 d8 9a bd
       -0.08711723 -0.3082748 -0.40859053 -0.07560886

block1.0.bn3.bias f4 [16]
000000 a0 27 50 3d 4f c5 b4 bc a0 21 1e 3c 2a 37 27 be
       0.05081904 -0.02206674 0.0096515715 -0.16329637
000010 7c 16 f7 bd dd c0 88 be 45 48 c4 3c 1f 00 3b 3f
       -0.120648354 -0.26709643 0.023960242 0.7304706
000020 df c3 35 3d 7d ec cc 3d e9 42 9e be 00 a0 92 3e
       0.04437625 0.10006044 -0.30910423 0.28637695
000030 22 f3 2a bf 42 69 65 be 9c 84 31 3c b4 78 09 3e
       -0.6677724 -0.22403434 0.010834839 0.13424951

block1.0.bn3.running_mean f4 [16]
000000 cb 9a 76 3e 37 b1 bc 3e b8 29 54 bf 4d 16 19 bd
       0.24082486 0.36853954 -0.8287616 -0.037374783
000010 77 71 3b 3f ba d5 b8 3d 37 8a f4 3e 57 ce da be
       0.7322001 0.0902514 0.477617 -0.4273555
000020 b6 4d 3a 3e 8b 05 97 bd 98 26 ce b9 85 64 25 bf
       0.18193707 -0.07374104 -0.00039320136 -0.64606506
000030 e2 d7 83 bd bc a3 40 be 8d c1 12 3f 21 e3 19 3e
       -0.06437661 -0.1881246 0.57326585 0.15028049

block1.0.bn3.running_var f4 [16]
000000 81 13 c7 3d 91 f6 04 3e f1 f8 a6 3e 22 a9 8e 3c
       0.09720517 0.12984683 0.32611802 0.017414633
000010 5f 67 6f 3e 64 3c 52 3d 14 6d a3 3d a6 27 94 3e
       0.23379277 0.051327124 0.079797894 0.289365
000020 5d 66 a7 3d e4 46 06 3d c6 23 a3 3d d9 79 1f 3e
       0.08173821 0.03278245 0.079658076 0.15573825
000030 4d 60 23 3c f3 9c 09 3e a0 3b 51 3e d1 aa 83 3d
       0.00997169 0.13438778 0.20432901 0.06429065

block1.1.conv1.weight f4 [8, 16, 1, 1]
000000 b8 fb c1 bd ed b8 fb 3d c9 cb 0e be c3 b2 9e 3e
       -0.0947184 0.12291131 -0.13944925 0.3099576
000010 c0 54 ec bc a4 d7 d4 3d f9 6f 7e be 39 95 04 be
       -0.028849006 0.10392693 -0.24847402 -0.12947549
000020 a0 44 85 bd ab 1f 49 3e 15 b3 96 3e b3 22 57 bd
       -0.0650723 0.19640987 0.29433504 -0.052523326
000030 07 3f 97 3e 96 23 39 3e 9f 4e d1 bc 9f 61 c4 3e
       0.29540274 0.18079981 -0.025550185 0.3835573
000040 62 4b 28 3e a9 ae f4 bd bd 27 5b be 26 5c 07 bd
       0.16435006 -0.11947376 -0.21401878 -0.033046864
000050 07 58 a0 bd 0d 4f 78 be 1b 3b 83 be 73 a0 4b 3d
       -0.0782929 -0.24248905 -0.2563103 0.049713563
000060 d2 99 b1 be ab ba 96 bd ab f9 09 be d9 b4 38 3d
       -0.34687668 -0.07359823 -0.13474147 0.045094345
000070 3e a4 bc bc 92 f1 12 be 62 35 a6 be 16 2b e4 be
       -0.023027536 -0.14349964 -0.32462603 -0.44564122
000080 a1 03 0a 3a 6e 54 c5 bd 66 b3 7f bd f4 71 da 3e
       0.0005264823 -0.09635244 -0.062426947 0.42665064
000090 14 80 25 be c2 2f 41 3e c5 51 c0 bd f6 7f a7 3d
       -0.16162139 0.18865874 -0.09390596 0.081787035
0000a0 a7 c2 27 3f cd 1a 39 be 0a af d2 3e fd 03 9e ba
       0.6553139 -0.1807663 0.4114917 -0.0012055632
0000b0 58 06 fc 3e 59 b5 86 3e 48 91 1d bf 1e bb d4 bd
       0.4922359 0.26310232 -0.61549807 -0.10387252
0000c0 71 6c ac bc 50 cb 3c 3d 3d 54 c0 bc ef 99 62 3d
       -0.021047803 0.04609233 -0.023477668 0.055322584
0000d0 8b a5 a1 bc ef 1a 8f 3c b7 38 58 3d d8 a1 28 bd
       -0.019732257 0.017468898 0.052788462 -0.04116997
0000e0 84 b4 14 3d e0 b0 c3 bc 3b b4 69 bc 3a 58 78 b8
       0.036304966 -0.023888052 -0.014264162 -5.9209975e-05
0000f0 c1 d1 0b bd 07 f3 bc 3d 56 9c 60 3d f9 18 8c 3b
       -0.034135584 0.09226041 0.054836594 0.004275438
000100 6e b8 98 3d fc c8 19 3e d3 62 0d be 46 82 18 3f
       0.07457052 0.15018076 -0.1380723 0.5957378
000110 40 0a 98 3e d4 28 91 bd 95 94 e2 bc 22 ee 8a 3e
       0.2969532 -0.070878655 -0.02765874 0.27134806
000120 a9 92 33 3c 8d 8b d0 bd 65 80 50 3f 8d c2 60 3d
       0.0109602595 -0.10182867 0.81445915 0.054873038
000130 a7 cf 02 3f 82 6a 22 3e 79 f7 d1 3b 0c 85 a3 bd
       0.510981 0.15860942 0.006407675 -0.07984361
000140 eb 29 86 3d c4 a5 dc 3d 58 73 2f 3d 94 be 81 bd
       0.06550964 0.10773805 0.04283461 -0.06335178
000150 82 d4 ff 3d bf 64 0e be 01 0b 29 bd 51 1b 06 be
       0.124917045 -0.13905619 -0.04127026 -0.13096358
000160 29 23 00 c0 76 ce 29 3e f4 bc 04 be 41 14 31 3e
       -2.002146 0.16582665 -0.12962705 0.17292883
000170 e1 ae 82 be 5b 11 9d 3d 2e 9e 5d bd 04 3f d5 3e
       -0.25524047 0.07669326 -0.05410593 0.4164964
000180 1f e3 e3 be 0c 2b b3 3b f8 05 37 ba d1 b0 b0 bd
       -0.44509217 0.005467778 -0.00069817854 -0.08627475
000190 65 cf 5d bd a8 a5 30 bd 38 eb 97 bd 80 76 fa bd
       -0.054152865 -0.043126732 -0.07417911 -0.12229633
0001a0 2d 50 be 3f 01 da 07 3e 59 71 41 3e 93 6a b2 bc
       1.4868218 0.13266756 0.18890895 -0.021779334
0001b0 a3 3a eb 3d ef 8d fe bc f7 4b c6 3d 64 a7 2c bf
       0.114857934 -0.031073539 0.09682458 -0.6744292
0001c0 bf 89 1d 3e c0 3d 55 be 4d ea 81 bd f9 1c 01 3e
       0.15384577 -0.20824337 -0.063435175 0.12608708
0001d0 a9 30 e5 3e 67 f1 c7 bd cd 79 f4 bd f8 e3 6d 3d
       0.44763687 -0.09762841 -0.11937294 0.058078736
0001e0 97 75 45 bf a3 f0 f0 bd f5 c3 92 3e 45 f5 24 be
       -0.7713255 -0.11764648 0.28665128 -0.16109188
0001f0 25 9b 33 3e df ef 9a be 7d 9d 84 3e b0 66 a9 3e
       0.17539652 -0.30261132 0.25901404 0.33086157

block1.1.bn1.weight f4 [8]
000000 6c 46 06 3f 88 c7 c8 3e ea 19 43 3f 76 5b da 3b
       0.52451205 0.3921473 0.76211417 0.006663735
000010 b7 3a 55 3f 40 ce 19 3f 9f af 1a 3f e5 da 46 3f
       0.83292717 0.6008034 0.60424227 0.77677757

block1.1.bn1.bias f4 [8]
000000 5f 69 62 be 15 44 19 bd f4 6b 49 be b5 a3 54 bd
       -0.22110508 -0.037418444 -0.19670087 -0.051913936
000010 ea 6f 03 bf ba 30 8d 3f 44 a3 18 3f 58 f4 b8 be
       -0.5134264 1.1030495 0.59624124 -0.3612392

block1.1.bn1.running_mean f4 [8]
000000 88 5f 9a 3f ef 5f 8a c0 44 0f 82 3f 01 72 b8 3e
       1.2060404 -4.3242106 1.0160909 0.36024478
000010 ad 7b ca 3f 7e 63 98 c0 d9 57 3c 40 28 69 d5 bf
       1.5818993 -4.762145 2.9428618 -1.6672716

block1.1.bn1.running_var f4 [8]
000000 7b e4 97 3f 55 64 02 40 8a c6 5e 40 2f cc 34 3d
       1.1866602 2.0373738 3.4808679 0.044140037
000010 a3 ed 27 40 cd 70 12 41 89 f2 d2 40 fc 91 17 40
       2.6238792 9.152539 6.5921063 2.3682852

block1.1.conv2.weight f4 [8, 8, 3, 3]
000000 00 df 94 bd f4 39 82 3b a9 6f ba bd aa af 29 be
       -0.072690964 0.0039741937 -0.09103329 -0.16570917
000010 07 6b 84 bd 85 6e d8 bd 19 4e d1 bd 98 2a 9a bd
       -0.06465726 -0.10567955 -0.10219974 -0.07527655
000020 44 57 7a bc d2 ba cb 3d e2 f0 9d bd 75 1d 9b bc
       -0.015279595 0.099477425 -0.077119604 -0.018934945
000030 b2 3e 84 3e a4 d1 c6 3d a6 93 b6 bc a6 9c 50 3d
       0.25829083 0.097079545 -0.022287201 0.05093064
000040 9f a7 51 3c 31 ae 11 be 76 09 85 bd c3 39 1f 3e
       0.012796312 -0.14226605 -0.06495945 0.15549378
000050 c4 12 61 3d 23 85 e0 3d 8a 0c 2e 3e 5b 91 35 be
       0.054949537 0.10962894 0.16996971 -0.1773123
000060 d8 c4 26 be c9 b0 08 be 09 c1 f8 bd 35 8b ea bc
       -0.16286027 -0.13348688 -0.121461935 -0.028630832
000070 64 94 ee bb 32 f6 a6 bc b1 64 8e bb 15 49 87 3d
       -0.007280873 -0.020381067 -0.0043454994 0.06605736
000080 ff 12 e0 3c 16 d7 d3 3c 9c 04 83 3d 8f a5 f3 3c
       0.027352808 0.025859397 0.063973635 0.02974203
000090 e9 0e dd bb 61 71 47 3d 38 25 24 3d 45 3e 78 bd
       -0.006746162 0.04869211 0.040074557 -0.06060626
0000a0 0a 2b 58 3e da e0 06 3d cc 7a 21 bd f9 fd 94 bd
       0.21110168 0.03292928 -0.03942375 -0.07275004
0000b0 ba 1a 37 bc 5b 3f 91 be 82 33 ba be 25 2e e5 bc
       -0.011175806 -0.2836865 -0.36367422 -0.027976105
0000c0 33 08 2c bf 4e 9b 46 3e 0e 04 10 3f 91 ca df 3d
       -0.6720001 0.19395182 0.56256187 0.10927308
0000d0 ae c0 de 3e 07 d4 dc 39 08 9c a7 3e 29 bd 8f 3e
       0.43506378 0.00042119643 0.3273623 0.28074005
0000e0 08 b2 4a 3d 08 d3 23 3f af 71 9d be a2 58 f6 be
       0.04948619 0.63993883 -0.30750796 -0.48114496
0000f0 18 52 ae bd 29 b0 0a bf 6f 3b 31 be 66 cc aa b8
       -0.08511752 -0.5417505 -0.17307828 -8.144304e-05
000100 e4 c7 1a be 8d d4 2c be 53 17 83 bb 8a e8 01 3e
       -0.15115315 -0.16877957 -0.004000583 0.12686363
000110 97 17 ff 3c c4 a7 d3 3b 02 21 22 3e 21 84 53 bd
       0.031139178 0.006459208 0.15832904 -0.05163968
000120 33 f6 b9 ba 35 60 f4 3d 1a 3e e9 3d 8a 88 2b 3a
       -0.0014187753 0.119324125 0.11388798 0.0006543478
000130 5b 99 24 bd e0 f5 b2 3c be 59 01 be d5 9e fc bc
       -0.040185314 0.021845758 -0.1263189 -0.030837456
000140 c8 1a f2 bc 1a 0f ce 3d ec 8c 8b 3e ff d2 a5 3e
       -0.029553786 0.10061474 0.27255952 0.3238754
000150 08 66 62 be 4e d3 1c 3e 52 93 24 3d 99 8a 83 be
       -0.22109234 0.15314981 0.040179558 -0.2569168
000160 1f ba 49 3d ed 4b f8 bc 41 cd b9 3e 2b a9 8b 3e
       0.049249765 -0.030309642 0.3628941 0.27277502
000170 26 50 2c 3e 0e 58 d9 be 8d a3 ff be d6 01 5b be
       0.16827449 -0.42449993 -0.49929467 -0.21387419
000180 e1 f6 d2 bd db 83 88 bd 95 13 5a be cf 80 a4 3d
       -0.10300995 -0.066657744 -0.21296532 0.08032381
000190 d8 ed 87 3d 67 c9 cd 3c c0 ae 02 3d f0 a3 05 bc
       0.06637162 0.02512045 0.031904936 -0.0081567615
0001a0 57 e3 64 3d e3 3c be bb 6d b0 3c bc 7e 54 9e 3c
       0.05588087 -0.005805598 -0.011516673 0.019327398
0001b0 f8 3d a6 3d a5 26 ce 3c 99 e9 b7 3d 7e f7 02 be
       0.08117288 0.025164912 0.08980102 -0.12789723
0001c0 de e4 83 be 1c f7 b7 3b 1f 9d 4f 3e 4c e8 0c 3e
       -0.2576055 0.0056141745 0.2027478 0.13760489
0001d0 fe 28 60 3c bf cf 74 be 32 99 0a bf 44 a6 43 bd
       0.013681648 -0.23907374 -0.5414001 -0.047765985
0001e0 6b d8 f4 3d 4c 67 f0 3e 55 65 42 bd fe ed 06 be
       0.11955341 0.4695381 -0.04745992 -0.13176724
0001f0 81 5b 15 3d ae 42 83 3d 5a bf 7f bd ec c5 da 3e
       0.036464218 0.064092025 -0.062438346 0.42729127
000200 15 81 1d 3e 88 8d f0 be 85 e6 2c bf 06 6a 9e be
       0.15381272 -0.4698298 -0.67539245 -0.30940264
000210 70 09 44 be e9 c0 7a be 66 e9 1e be d9 96 4c be
       -0.19144225 -0.24487652 -0.15518722 -0.19979419
000220 18 83 fd bc c2 b0 d7 bd 2f 95 08 bd 06 5e 1a 3e
       -0.0309463 -0.10531761 -0.033345398 0.1507493
000230 a2 e2 06 be 30 15 2a be b7 0a 32 be df 07 eb be
       -0.13172391 -0.16609645 -0.173869 -0.45904443
000240 4e 77 6d bd a8 e9 0f be b4 5e 09 be c0 88 89 bd
       -0.057975106 -0.14053977 -0.13415033 -0.06715536
000250 b6 e4 0b be 5b c7 c2 bd e9 0d ad bc 54 a9 7b be
       -0.13661465 -0.0951068 -0.021124797 -0.24576312
000260 eb 33 0b 3d 76 10 14 be 17 51 15 be e0 74 40 be
       0.03398506 -0.14459404 -0.14581715 -0.18794584
000270 6b ba 1b be ce 36 84 3e 8d 3a 8f 3d 31 1d b2 bd
       -0.15207832 0.25823063 0.069935896 -0.08696974
000280 f2 a6 d8 3d bf 12 35 3e 3a 4b 7a 3e 0b 28 9c 3d
       0.10578717 0.17682932 0.24442759 0.07624825
000290 01 bd 0b be 7d 42 38 3e 9e 75 1f bf b4 e6 c4 bc
       -0.13646318 0.17994113 -0.62288845 -0.02403579
0002a0 7e 68 2c 3d 51 69 23 be 43 37 ba 3e f1 0e da 38
       0.04209184 -0.15958144 0.36370286 0.00010397833
0002b0 03 c9 0c bc 2e e0 f8 3b a7 21 d1 3b 21 7e 6c bc
       -0.008592847 0.0075950837 0.0063821855 -0.014434368
0002c0 9d 26 05 bc cc b7 8b 3c 06 6d 4e bc e9 13 ae bc
       -0.008126882 0.017055415 -0.012599235 -0.021249728
0002d0 d6 a1 3a 3e 4f 97 90 3c 49 a0 c5 bd fc c6 1c 3e
       0.18225798 0.017650275 -0.096497126 0.15310282
0002e0 cf 3f 6e be 12 9e c9 be 57 b8 9a 3c d5 8b 5d be
       -0.23266529 -0.3937841 0.018886728 -0.21635373
0002f0 5b 8a 25 be 6d e0 0a 3e 73 75 16 3e e2 42 84 be
       -0.1616606 0.13562174 0.14693241 -0.25832278
000300 80 d0 df bd 6d 85 b8 3f 47 b7 bb 3e bd 78 de be
       -0.1092844 1.4415718 0.36663267 -0.4345149
000310 2f d1 be bd 6c 98 91 be d8 67 b7 bd cc 61 fc b9
       -0.09317242 -0.284366 -0.089553535 -0.0004813805
000320 8a cf f4 3d 5f f9 dc 3e 49 7a 35 bf 32 05 bb 3e
       0.119536474 0.43159005 -0.7088972 0.365274
000330 19 e1 93 3e ef c8 4d 3f 0f b1 bc 3e 4a 9a 69 be
       0.28882673 0.80384725 0.36853835 -0.22812763
000340 49 b0 e8 bc f5 e0 2d be e8 ce 82 be 19 4c 84 3e
       -0.028404372 -0.16980346 -0.25548482 0.25839308
000350 29 d6 44 be 8f ec d7 b9 3f 3e 00 bd 5f 9e dc bb
       -0.1922232 -0.00041184245 -0.031309363 -0.0067327465
000360 c3 1b 0f 3e 61 13 dd 3d ae ff 64 3d 8d 2e 38 3e
       0.13975434 0.10794712 0.055907898 0.17986508
000370 94 f5 83 3e 74 9a 22 3d 88 32 fd bc e7 68 fe 3b
       0.257733 0.03969808 -0.030907884 0.00776397
000380 be a7 f9 bd ec 7d 82 be 9e dc bf bd 3b 10 29 bd
       -0.121901974 -0.25486696 -0.09368251 -0.041275244
000390 64 8a e0 bc 73 06 80 3d 03 eb 4f 3d f0 eb 80 bd
       -0.02740974 0.0625123 0.050761234 -0.062950015
0003a0 32 19 5d 3c 20 ab dc 3c 6f 45 7f 3d 50 24 13 bd
       0.013494777 0.026937068 0.062322076 -0.035923302
0003b0 02 c0 bf 3d 6f 46 c6 3c 4c eb 8b bd f8 34 aa bd
       0.093627945 0.024203507 -0.06831989 -0.08310884
0003c0 00 34 83 bd d0 75 e4 bd ed 7b 01 be f1 e4 5a 3d
       -0.064064026 -0.111552835 -0.1264493 0.05344099
0003d0 b7 2f 6e 3c 65 00 42 3d 67 d1 27 3d 76 0b d2 bc
       0.014537743 0.047363658 0.040971186 -0.02564023
0003e0 49 01 1b 3c 04 b2 9a 3b d7 25 d4 bc c7 0e 33 3d
       0.009460756 0.004720928 -0.02589695 0.043715265
0003f0 6a ff f6 3c 8a ab 1c bd d7 e2 77 bb 53 75 14 3e
       0.030151088 -0.03824953 -0.0037824416 0.1449788

block1.1.bn2.weight f4 [8]
000000 1f e4 31 3f 52 ed 17 3f 64 05 0d 3f ab c6 3e 3f
       0.6948871 0.593465 0.5508635 0.74521893
000010 9b a4 86 3f 67 f9 0a 3f 8b df 35 3f 58 7f 5b 3f
       1.0518984 0.5428681 0.71044225 0.85741186

block1.1.bn2.bias f4 [8]
000000 98 3d 5a 3d 69 c4 bc 3e 02 6b 28 3f 4c cb bb bb
       0.053281397 0.368686 0.6578828 -0.005731022
000010 92 dc f3 be 33 53 66 3c 4f ba 9d bd d4 9a 99 be
       -0.4762922 0.014057922 -0.07701551 -0.30000937

block1.1.bn2.running_mean f4 [8]
000000 d4 50 60 be e4 48 bb bf 28 13 d7 3f c3 75 ea 3f
       -0.21905833 -1.463162 1.6802721 1.8317188
000010 3b 6a 81 3b 53 87 31 3f a8 c7 3a bf 7d cc 17 bf
       0.0039494312 0.69347113 -0.729609 -0.592964

block1.1.bn2.running_var f4 [8]
000000 a1 24 2c 3f 96 23 66 3f e8 f3 6f 3f 2c 6b d6 3e
       0.6724339 0.8989805 0.93731546 0.4187864
000010 ad c8 37 3f 57 df d8 3e 29 66 01 3f 5d 46 07 3f
       0.7179058 0.42357895 0.5054651 0.5284174

block1.1.conv3.weight f4 [16, 8, 1, 1]
000000 fa 14 1b bf c0 be 42 3d 95 db 04 3e cc 33 b0 3e
       -0.6057888 0.047545195 0.12974389 0.34414518
000010 4d 94 c3 bd 02 f6 36 be 9a 17 a5 be 75 84 ca be
       -0.095497705 -0.17867282 -0.3224457 -0.39554182
000020 8b 4c 90 3e 40 c1 62 be ce 00 01 bd 62 e3 df be
       0.28183398 -0.22144032 -0.031494908 -0.43728167
000030 da 0b 0f 3f ec 64 23 3d 42 95 4f 3c f7 ef e8 3e
       0.5587746 0.03989117 0.012669863 0.4549558
000040 12 d7 0b bf 00 8e ab 3d a0 d0 02 3e 74 be 25 be
       -0.54625046 0.08376694 0.12774897 -0.16185933
000050 93 15 ad be 32 78 e4 3e 35 a4 92 be d1 b2 e8 bd
       -0.33805522 0.44622952 -0.28640905 -0.113622315
000060 1f 35 66 3c f2 70 99 3d 88 3e c8 bd f5 51 10 bd
       0.014050751 0.07492246 -0.09777552 -0.03523441
000070 c5 b1 72 bd c2 e8 07 bd 23 75 8e bd 1f 70 ba bc
       -0.059251565 -0.03318096 -0.06955936 -0.022758542
000080 ff a9 fa 3d 94 3c 54 3e 1e ac 90 be 59 b7 4b be
       0.122394554 0.20726234 -0.28256315 -0.1989416
000090 dd 4a dd be 9f 13 65 bd 28 0d 3e 3d ae 9f 05 bf
       -0.4322118 -0.055926915 0.046399266 -0.52196777
0000a0 01 17 b3 3c d0 96 d7 3c 3f e4 e1 3c 4a 29 89 bc
       0.021861555 0.02631703 0.027574657 -0.016743321
0000b0 85 c7 ab 3e 28 d5 89 bd 4d f7 1e bc 48 88 5d 3c
       0.3355066 -0.067301095 -0.009702516 0.0135212615
0000c0 b8 4e 13 be c8 fc 57 3e bd 20 d6 3c e2 e7 3a 3c
       -0.14385498 0.21092522 0.026138658 0.011407824
0000d0 00 9d dc 3e b6 4e 9d 3d b5 48 8c 3e 69 ff 8e be
       0.43088531 0.076810285 0.2739922 -0.27929237
0000e0 26 2d f3 3e c9 eb 02 3e 15 0c f0 bd d8 fe c4 be
       0.47495383 0.12785257 -0.117210545 -0.3847568
0000f0 8a df 0b 3d 19 1d 91 3d fc d7 6b 3e a0 fd df bd
       0.03414873 0.07085628 0.2303161 -0.10937047
000100 ad 23 52 be d7 7c 0d bf 94 63 83 bf fe 07 c4 3e
       -0.20521422 -0.55268615 -1.0264764 0.38287348
000110 f8 b4 18 be 59 8b 02 3f 0b 8c 42 3e 57 44 9b 3e
       -0.14912784 0.5099388 0.18998735 0.30325577
000120 e2 db 29 3e 0c a4 cf bd 24 ce 2e 3d ac de 88 bc
       0.16587785 -0.10138711 0.04267706 -0.01670774
000130 c2 9a c1 3e 6d 1d 39 3e 7b 45 36 3f db 8d 10 be
       0.37813383 0.18077631 0.7119977 -0.14116614
000140 4c 9d cb bd 3e b6 c7 3d a4 37 48 3d e2 22 1c be
       -0.099421114 0.09751557 0.048881188 -0.15247682
000150 b8 d0 2d 3f 61 4a b3 3d 4e 5d d3 3e a2 d8 38 3d
       0.67896605 0.08754421 0.41282123 0.045128472
000160 f2 25 ac be e3 98 d8 be 66 ce 6f be 1a 71 0e bf
       -0.336227 -0.42304143 -0.23418579 -0.5564133
000170 1d 11 1f bf 7d 7c e9 be 48 b8 47 3d ba 58 75 be
       -0.6213549 -0.4560279 0.04875973 -0.23959628
000180 d2 03 01 be e0 c0 3f 3f 9f 8c 42 3d 8b 5c f9 bd
       -0.12599114 0.7490368 0.047497388 -0.12175854
000190 cd d9 ad 3c b8 ab 80 3d f5 7b 24 be 4b 3f f8 bd
       0.02122202 0.06282753 -0.16062911 -0.12121447
0001a0 4a 24 e9 3e 45 9c 45 be ed 32 40 3d 00 af dd bd
       0.455355 -0.19297893 0.046923567 -0.10824394
0001b0 fb 6e df 3c 5c 35 fc bd 28 d3 03 bc 47 dd 29 3f
       0.0272746 -0.12314865 -0.008045949 0.6635327
0001c0 f3 8f 9c 3d 5d 55 b7 3e dd de 18 be 95 e8 bc be
       0.07644644 0.35807315 -0.14928766 -0.36896196
0001d0 f9 9a 7c be e5 10 37 be e2 34 c4 be 79 18 a7 3c
       -0.24668492 -0.17877539 -0.38321596 0.020397412
0001e0 08 b5 40 3e 4d fa 47 3e bb 44 65 3f df ed 6b be
       0.18819058 0.19529076 0.89558 -0.2303996
0001f0 ac 16 b7 be 04 d9 73 3e be 28 88 bd 81 a6 6e 3d
       -0.35759485 0.23813254 -0.06648396 0.05826426

block1.1.bn3.weight f4 [16]
000000 f9 6c 1c 3f 32 54 84 3e ec 7f 89 3e fb 6b 9e 3d
       0.6110378 0.25845486 0.2685541 0.077354394
000010 6d 2e c5 3e 39 83 5e 3d 13 fd 0d 3e 94 e1 8b 3e
       0.38511983 0.054324362 0.13866071 0.2732054
000020 db 0c 33 3f f6 ad 6b 3e 3c 7e 62 3f 5d 61 34 3f
       0.6994149 0.2301558 0.8847387 0.70461065
000030 16 30 1c 3f 99 15 56 3e e5 44 96 3e 68 13 14 3f
       0.61010873 0.20906676 0.29349437 0.5784211

block1.1.bn3.bias f4 [16]
000000 24 18 e3 3e d1 a3 37 3e 6b 9d 91 3c f0 a0 8e be
       0.44354355 0.17933585 0.017775258 -0.2785716
000010 b4 9b a9 bd 34 19 13 be df 6a 07 3e 2f 7d 86 3e
       -0.08281651 -0.14365083 0.13224362 0.26267383
000020 b9 f4 14 be 6e 5b ae 3d 2f 6b a0 bd 35 01 d7 3e
       -0.1454648 0.085135326 -0.07832944 0.41993108
000030 cb 3a 57 bd ce 28 77 be b8 ff ce bc c3 3d 20 3e
       -0.052546304 -0.2413666 -0.02526842 0.1564856

block1.1.bn3.running_mean f4 [16]
000000 2c b7 16 be bb 64 5e 3d 9b ea 15 be 1e 8a a4 bd
       -0.14718312 0.054295283 -0.14640276 -0.08034156
000010 8b cd a3 be 82 69 dc 3d 46 72 68 3e e0 34 5b 3d
       -0.31992754 0.107623115 0.22699842 0.053517222
000020 04 8d 42 bf 08 d9 96 3e 03 4f 9a 3e 47 29 62 bf
       -0.7599642 0.29462457 0.30138406 -0.88344234
000030 1f 99 8b 3e 89 07 f6 3d f1 88 4b be d1 f5 25 3f
       0.2726526 0.12013156 -0.19876458 0.6482821

block1.1.bn3.running_var f4 [16]
000000 81 49 1e 3e ce f1 8e 3e 14 f1 2c 3e d4 e2 b6 3b
       0.15457727 0.27918857 0.16888839 0.0055812392
000010 24 f8 05 3e 31 ad 56 3d 87 87 07 3e bc 90 bc 3d
       0.1308294 0.052411262 0.13235293 0.092072934
000020 00 10 a5 3e e2 91 63 3e 61 08 a5 3e 00 fa a4 3e
       0.3223877 0.22223619 0.32232955 0.32221985
000030 d4 4e a7 3d 96 27 c3 3d 72 56 ee 3d 0a 2e a4 3e
       0.08169332 0.09529035 0.11637582 0.32066375

block1.2.conv1.weight f4 [8, 16, 1, 1]
000000 06 e0 8a 3e 0c d8 f7 3e f8 77 91 be b6 e1 6c 3e
       0.2712404 0.48407018 -0.2841184 0.23132977
000010 64 20 18 bf 2f 7b b1 3e 30 55 89 bd dd 01 bd 3d
       -0.59424424 0.34664294 -0.06705701 0.09228871
000020 c0 ad c1 bc eb d2 b9 bf 10 eb e7 be 23 67 8c ba
       -0.02364242 -1.4517492 -0.45296526 -0.001071189
000030 d9 cc 26 be ca a2 38 be 3c 51 cb 3d 7b 42 e7 bd
       -0.1628908 -0.18030849 0.099276036 -0.11291977
000040 ec 7f b9 be 1b 00 42 be c8 e2 a0 3e 21 72 84 3d
       -0.3623041 -0.18945353 0.3142302 0.06467081
000050 e3 b4 84 3e 7c f4 6f be 7d ce 38 3f a1 cc e6 3d
       0.25919256 -0.23433107 0.72190076 0.112694986
000060 73 5b c6 bd fb 1d 7f 3f 77 58 02 3f a7 6d 8c 3d
       -0.09685411 0.9965512 0.50916237 0.06856852
000070 26 fe 2b 3e 0a 95 0f 3e aa 5b 85 be e1 ec 16 bd
       0.16796169 0.14021698 -0.26046497 -0.036847
000080 19 3f 30 be 2e 27 f0 bd 90 e8 17 be 46 cc b6 bd
       -0.1721157 -0.11726223 -0.1483481 -0.08925681
000090 f5 15 7e be b7 38 90 3e 81 e4 57 3f 50 02 80 3d
       -0.24813063 0.2816827 0.84333044 0.06250441
0000a0 ec 8b ba bd d4 e5 be be fc 58 0b be c5 56 4f 3b
       -0.09108719 -0.3728472 -0.13608164 0.0031637412
0000b0 19 91 f5 3c 55 b3 98 bd 85 48 9e be a5 5b 07 bd
       0.029976415 -0.0745608 -0.30914703 -0.033046383
0000c0 02 3b 47 3e 39 f2 95 bf 49 5f 31 bd 27 96 e0 bb
       0.19456103 -1.1714545 -0.04330376 -0.006853837
0000d0 22 dd 36 b9 6d 4d 36 bf 76 f3 97 3d 88 f6 03 3d
       -0.00017439251 -0.7121189 0.07419483 0.032217532
0000e0 c2 ad c1 3d 1a 85 9e 3e df 02 cc bd 98 e9 d4 3d
       0.0945697 0.30960923 -0.09961485 0.10396117
0000f0 11 c2 20 bd be 66 0f bd 7d cf 29 b9 2c ca ba bd
       -0.039247576 -0.035010092 -0.00016194391 -0.091205925
000100 ef 3b 23 be 09 f8 d6 bd 52 d8 2b 3e e8 c4 35 3e
       -0.15940832 -0.10496528 0.16781738 0.17750895
000110 22 e1 0b be 58 3f 8b 3d c4 5c 5a be 3c 7b de 3b
       -0.136601 0.06799191 -0.2132445 0.006789593
000120 94 46 22 be 44 cd 6d bd c5 00 01 be 29 a3 c4 3d
       -0.15847236 -0.058057085 -0.1259795 0.09601433
000130 f4 89 3a 3e 53 ff 0a 3f 68 3d 39 3d 83 a8 10 be
       0.18216687 0.54295844 0.045224577 -0.14126782
000140 fd e0 20 be b5 2b 23 bf b7 99 17 3e b5 a3 11 3d
       -0.15710826 -0.63738567 0.14804731 0.035556514
000150 65 d8 01 be bf bf 8b be 21 86 32 bf 68 db 2e 3d
       -0.12680204 -0.27294728 -0.69735914 0.04268971
000160 b5 ac 1d 3d 20 b5 c9 3d 6f e1 2e be 87 b7 d8 bd
       0.038494784 0.09849 -0.17078184 -0.1058188
000170 81 8a e3 bd 73 f0 dc be 96 c7 74 be 34 88 d4 3d
       -0.11110402 -0.43152198 -0.23904261 0.10377541
000180 76 52 7f bd d9 1d ec be a7 5c 4d 3f c4 2a ff 3d
       -0.0623345 -0.46116522 0.802195 0.12459329
000190 ea 0c 6d be a8 02 7b 3e 9c 0d 30 bf 14 93 72 3e
       -0.23149458 0.24512732 -0.68770766 0.23688918
0001a0 6b 31 ef bd 89 e1 5c bd 9c 84 05 be f4 80 84 3d
       -0.116793476 -0.053926025 -0.13038868 0.06469908
0001b0 a9 36 a9 3d ae d3 5c bd 07 a5 ab 3d 2c 9a a8 3d
       0.08262379 -0.05391281 0.08381086 0.08232531
0001c0 ff cd a7 3e e6 fe 2f bd 8c 93 ad 3c 69 ab b8 3d
       0.3277435 -0.0429677 0.02118852 0.09017069
0001d0 9c cc 53 be 50 aa 38 3d c8 13 28 3c 21 22 83 bd
       -0.20683521 0.045084298 0.0102586225 -0.06402994
0001e0 fd bd e8 3d 70 b5 8e 3d 00 ee 82 3e b1 7d 81 bb
       0.113643624 0.069682 0.25572205 -0.003951751
0001f0 b4 c8 1e 3d ae a0 cf 3d 42 7e 31 3d ad ff 9e 3f
       0.038765624 0.10138069 0.0433333 1.2421776

block1.2.bn1.weight f4 [8]
000000 e3 16 85 3f 02 e9 42 3f 8a 1e 10 3f ca 6d 51 3f
       1.039761 0.7613679 0.562966 0.8180815
000010 fe 36 1b 3f ff 93 39 3f 34 fe 24 3f 1f c5 46 3f
       0.60630786 0.7249145 0.64450383 0.7764453

block1.2.bn1.bias f4 [8]
000000 a5 52 b6 3e f8 44 53 3d e6 70 26 bd 1c 5e 23 3e
       0.35609928 0.051579446 -0.040635012 0.15953869
000010 64 dc 96 bd f4 4b 0d be 7a 28 6a 3e 9a ed 50 be
       -0.07366255 -0.13798505 0.22867003 -0.20403138

block1.2.bn1.running_mean f4 [8]
000000 be 26 59 c0 59 c3 3d 40 53 78 a8 bf 17 69 23 c0
       -3.3929896 2.965048 -1.316172 -2.5532892
000010 8f ce e1 be f4 8e 5b c0 c4 5f fa be c6 f7 72 40
       -0.44102904 -3.4306002 -0.48901188 3.796373

block1.2.bn1.running_var f4 [8]
000000 4d eb 15 41 92 30 05 41 f0 e3 2f 40 04 e5 d8 40
       9.3699465 8.324358 2.7482872 6.777956
000010 ff b6 92 3f 8f 78 92 40 a6 bb a1 40 80 5e 57 40
       1.1462096 4.5772166 5.0541563 3.3651428

block1.2.conv2.weight f4 [8, 8, 3, 3]
000000 66 42 0d be 4d ba c4 bd 8a 53 f0 bd 65 4c bc 3d
       -0.1379486 -0.096058466 -0.11734684 0.091942586
000010 2b 89 97 3f f2 e8 6d 3e ad 74 48 bd 7c e6 8e be
       1.1838735 0.23233393 -0.048939396 -0.2791022
000020 ff e4 18 be de 19 e0 3d c7 1b 8d 3e d4 b5 2b bd
       -0.14931105 0.10942434 0.27560255 -0.04192145
000030 e8 a6 f0 3e 85 5f 80 3f 20 6e 15 3f 4f 05 e7 3d
       0.4700234 1.002915 0.5837116 0.112803094
000040 b4 41 f4 3d 46 36 04 3e a1 20 8f 3e bb 99 3b 3d
       0.119265944 0.12911329 0.2795458 0.045800906
000050 f7 05 9c 3e 7e dd ea bd b0 ae 1b 3c 5e 2e 90 3d
       0.304733 -0.114680275 0.009502098 0.07040094
000060 ce 3a ab bd 2d 32 b6 3d dc 24 1d be 27 b9 08 be
       -0.083608255 0.08896289 -0.15346092 -0.1335188
000070 6c 49 81 be 33 74 e1 bd ec 7a b8 3e a6 f3 0f be
       -0.2525133 -0.11008491 0.36031282 -0.14057788
000080 c7 3f 72 3c 7b e5 14 3e 3e 22 92 bd 2c 45 fc 3d
       0.0147857135 0.14540665 -0.071354374 0.12317881
000090 e5 79 a3 bc 6c 91 6c 3e 50 2d 2c be 38 41 59 3d
       -0.019955585 0.23102349 -0.1681416 0.053040713
0000a0 79 db 13 3e 19 21 64 bd 52 f9 09 3c 0c 60 c9 3d
       0.14439191 -0.055695627 0.008421259 0.098327726
0000b0 b3 e7 8f bc ff ad 43 be 7c 75 33 be 5d fc 17 bd
       -0.017566537 -0.19109343 -0.17525285 -0.037105907
0000c0 d8 dc 39 3e 45 19 78 3e 45 24 83 3e 82 91 c6 bc
       0.18150651 0.2422839 0.2561361 -0.024239305
0000d0 e6 b8 3c 3e 2b 18 a5 bd 92 b7 0e 3e a3 bd 5b 3d
       0.18429908 -0.0806125 0.13937214 0.05364765
0000e0 bd ac 5b bd 5b ab e7 3e 9f a2 6e bd 76 34 01 3e
       -0.053631533 0.4524792 -0.058260556 0.12617669
0000f0 bb 4e df 3d f1 8c 9c 3e 8b ab 31 ba 3c b4 c0 bd
       0.109036885 0.3057628 -0.0006777576 -0.09409377
000100 bd c9 93 3e 96 e2 28 3d aa a4 ab be 95 30 af bd
       0.28864852 0.041231714 -0.33524066 -0.08554188
000110 33 d7 20 3e e3 88 09 be 3c f3 f6 bd 4c 11 0d 3d
       0.15707092 -0.13431124 -0.12058112 0.034440324
000120 e8 6a 24 be b7 7d b9 3c 79 f3 78 3d ed 9f a1 3e
       -0.16056406 0.022642953 0.06077907 0.31567326
000130 01 38 3b 3e a7 af 18 be 23 4e 57 3e 64 bd 08 be
       0.18283083 -0.14910756 0.210259 -0.13353497
000140 50 8e a6 3d fa 58 57 39 39 19 db 3c 67 46 a5 3d
       0.08132613 0.00020537144 0.026745426 0.08070069
000150 7f 34 6c 3e ed d4 18 3e f9 47 ec 3e 75 18 b4 bd
       0.230669 0.14924975 0.4614866 -0.08793727
000160 c0 b5 a3 bd 8e 55 35 be 0a 85 81 be 87 3e 5a be
       -0.079936504 -0.17708418 -0.25296813 -0.21312915
000170 b4 24 4b bd dc 0a 40 be 74 83 aa bd 86 96 5e 3e
       -0.04959555 -0.18754143 -0.08325854 0.21737108
000180 c3 19 8f 3d 08 30 56 3e 43 d6 ad 3d 65 98 a5 bd
       0.069873355 0.2091676 0.08488133 -0.080857076
000190 55 9f d4 bd 24 02 8a bd 86 9c 47 3e 11 01 dc 3d
       -0.10381953 -0.067386895 0.19493303 0.10742391
0001a0 6b d9 14 be d3 e0 7d 3d 5a 18 58 3d 5e 61 06 be
       -0.14536063 0.061981987 0.0527576 -0.1312308
0001b0 34 9a c3 3b 9a 9e 0c be 48 8e 5e bd a8 3f f0 bc
       0.00596931 -0.13732377 -0.05433491 -0.029327229
0001c0 71 dc 98 be 90 e3 13 3e c2 32 02 be e4 06 ea bb
       -0.29855683 0.14442277 -0.12714675 -0.0071419347
0001d0 01 31 93 3d 96 fa f8 3b 31 da 3e be d9 25 0c be
       0.07187081 0.0075982315 -0.18637921 -0.13686313
0001e0 2f 5e 5d 3c d4 63 18 3e c0 0f c3 3d e4 1d 96 3d
       0.013511225 0.14881831 0.095244884 0.0732992
0001f0 37 db 33 3e 0c 1e 59 3d 0c 89 13 be cc db 67 be
       0.17564093 0.05300717 -0.14407748 -0.2264244
000200 a3 5d b4 bd c7 f5 5f bd b8 d0 16 3e bb 79 79 be
       -0.08806922 -0.05467775 0.14728057 -0.24362843
000210 f8 4d 75 be 6d 82 9d bc bc 1d b5 bc 27 ac d7 3e
       -0.23955524 -0.01922723 -0.022108905 0.4212353
000220 c8 09 34 bd 43 92 05 bf 0c d2 19 3f e8 1c 1b be
       -0.04395464 -0.521763 0.6008613 -0.15147746
000230 98 2e a2 be d3 83 5e 3e 06 24 66 bc 2e 39 62 be
       -0.31676173 0.21729974 -0.014046675 -0.22092125
000240 37 f6 93 3e 27 88 ae 3c 69 50 57 3e c9 1f b2 be
       0.28898785 0.021305157 0.21026768 -0.34789875
000250 fd 6f 35 be 6d a8 10 3e 45 4b e0 3d 76 d9 b6 be
       -0.17718501 0.1412675 0.109518565 -0.35712785
000260 af 14 db be 7e cc da 3d 91 ce 06 3e d1 71 1f 3e
       -0.42789218 0.10683535 0.13164736 0.15570761
000270 1c 96 f2 bb 5b f5 f4 3d 8e 8c 19 be 97 94 01 3d
       -0.0074031483 0.1196086 -0.14995024 0.031635847
000280 35 fb 40 3e ed f2 7b 3b 1e a4 30 3c 85 e1 e0 3d
       0.18845828 0.0038444356 0.010781316 0.109805144
000290 7a e9 54 3e 2f 92 3e be 3a 6b a6 bd 50 dc b6 bd
       0.20792189 -0.18610452 -0.081259206 -0.0892874
0002a0 f1 28 26 be fc af 39 3e 3c e3 07 3e fb 83 b1 be
       -0.16226555 0.18133539 0.13270277 -0.34671006
0002b0 02 35 43 bd 26 68 75 3d d9 b4 a5 3e be 36 39 3f
       -0.047657974 0.059913777 0.32364538 0.72349155
0002c0 45 37 85 3e ea 2b 8b 3e 6a af 06 3f a8 dd 11 3e
       0.2601873 0.2718194 0.5261141 0.14244711
0002d0 32 ec 0c 3e 0d 14 66 3e 76 42 5f bd ab 14 5a 3e
       0.13761976 0.22468586 -0.05450674 0.21296947
0002e0 23 f7 c5 be c4 2a 7a be 82 bd 9a bd b7 86 5c be
       -0.38665113 -0.24430376 -0.07555677 -0.21535765
0002f0 b8 06 c1 3d 62 e4 56 be 39 6d 92 be 77 91 47 be
       0.094251096 -0.20985559 -0.28598955 -0.19489084
000300 15 f0 1e 3e a2 35 d9 3e b1 2d 86 3d 7d c6 13 bd
       0.15521272 0.4242373 0.06551684 -0.036077965
000310 47 ef 1f 3e 64 03 8c bd 11 3e 8c 3d 09 25 ba 3d
       0.15618621 -0.06836584 0.06847776 0.09089095
000320 b1 23 02 3e 4b 6b 30 3e 73 93 31 be a6 d5 87 bd
       0.12708928 0.17228429 -0.17341404 -0.06632547
000330 db 15 be be c8 af 89 be 4f bf 1f 3e a8 76 18 be
       -0.3712605 -0.26891923 0.15600322 -0.14889014
000340 7c 86 c6 bd 43 6b 05 be 69 71 b3 3e 78 5b a8 3e
       -0.096936196 -0.13029198 0.35047463 0.32882285
000350 d6 6a 9d be 17 09 13 3e 87 d0 8c 3d e2 71 ae bd
       -0.30745572 0.14358936 0.06875711 -0.08517815
000360 1f 26 06 bc 25 e9 16 3e 02 c0 78 bd d2 0e 3a bd
       -0.0081878 0.14737375 -0.060729988 -0.04542429
000370 f3 a0 00 3d b4 b6 de bd e5 2e 36 be 15 91 33 bd
       0.031403493 -0.108746916 -0.17791326 -0.043839533
000380 2e 25 69 3e 9f ed de bd 75 93 f9 3d 7c 48 9f 3c
       0.22768089 -0.108851664 0.12186328 0.019443743
000390 f7 22 bf 3c 5a da 35 3d 5e 24 2d be f9 97 39 3e
       0.023332102 0.04439769 -0.16908404 0.18124379
0003a0 54 62 65 3e 40 de 18 bd 10 fc 35 bb ab 8d 7d 3d
       0.2240079 -0.03732133 -0.002776865 0.061902683
0003b0 75 7c bc bc 3a cd 07 3e bb 60 12 3e f0 b2 91 be
       -0.023008564 0.13261881 0.14294712 -0.2845683
0003c0 cf 53 f3 bd 92 0e 43 be f1 af 55 be 7b 72 4a be
       -0.118812196 -0.19048527 -0.20867898 -0.19770233
0003d0 47 20 da bd 1d a7 8f be 2e 22 67 3e b0 84 ad 3e
       -0.10650688 -0.28057185 0.22571632 0.33890295
0003e0 94 8f 3f 3d 97 76 95 be af f1 16 3e 65 73 2b 3d
       0.046767786 -0.2919204 0.14740632 0.041858096
0003f0 64 29 4e bd 03 a0 99 bc 92 42 10 3e 0f 1a 9a be
       -0.050332442 -0.018753057 0.14087895 -0.30098006

block1.2.bn2.weight f4 [8]
000000 bf d8 16 3f d3 eb 54 3f 20 31 ff 3e ef db 36 3f
       0.5892448 0.8317234 0.49842167 0.7142934
000010 e9 b1 12 3f 4a ac 02 3f 9a 56 5e 3f 65 fa fd 3e
       0.5730272 0.5104414 0.86850893 0.49605098

block1.2.bn2.bias f4 [8]
000000 19 82 29 3f a3 9d b4 be fa 07 6a 3e d5 9e c9 bd
       0.6621414 -0.35276517 0.22854605 -0.09844748
000010 16 29 93 be 8d 79 21 3f 25 02 29 bf 1c 2c 01 3e
       -0.28742284 0.63076097 -0.660189 0.12614483

block1.2.bn2.running_mean f4 [8]
000000 c5 17 cf 3f 96 a9 c5 bb d2 b8 eb 3e 48 af 87 bf
       1.6179129 -0.006032179 0.46039444 -1.0600367
000010 ac af 13 3f 54 f1 c4 3f 12 c2 99 3e d6 e2 4f 3e
       0.5768993 1.5386147 0.30030876 0.20301375

block1.2.bn2.running_var f4 [8]
000000 13 b6 bf 3f bc f0 01 3f 17 e5 55 3f b1 97 41 3f
       1.497744 0.50757957 0.8355269 0.7562209
000010 ef 28 6f 3f 5d 99 a2 3f 8c 54 7c 3f 30 16 08 3f
       0.93421835 1.2703053 0.9856651 0.53158855
